…
I0617 13:06:22.795331 15212 upgrade_proto.cpp:69] Successfully upgraded file specified using deprecated input fields.
W0617 13:06:22.795348 15212 upgrade_proto.cpp:71] Note that future Caffe releases will only support input layers and not input fields.
I0617 13:06:22.800016 15212 net.cpp:58] Initializing net from parameters: 
name: "ResNet-50"
state {
  phase: TEST
  level: 0
}
layer {
  name: "input"
  type: "Input"
  top: "data"
  top: "rois"
  input_param {
    shape {
      dim: 1
      dim: 3
      dim: 224
      dim: 224
    }
    shape {
      dim: 1
      dim: 5
    }
  }
}
layer {
  name: "conv1"
  type: "Convolution"
  bottom: "data"
  top: "conv1"
  param {
    lr_mult: 0
  }
  param {
    lr_mult: 0
  }
  convolution_param {
    num_output: 64
    pad: 3
    kernel_size: 7
    stride: 2
  }
}
layer {
  name: "bn_conv1"
  type: "BatchNorm"
  bottom: "conv1"
  top: "conv1"
  param {
    lr_mult: 0
    decay_mult: 0
  }
  param {
    lr_mult: 0
    decay_mult: 0
  }
  param {
    lr_mult: 0
    decay_mult: 0
  }
  batch_norm_param {
    use_global_stats: true
  }
}
layer {
  name: "scale_conv1"
  type: "Scale"
  bottom: "conv1"
  top: "conv1"
  param {
    lr_mult: 0
    decay_mult: 0
  }
  param {
    lr_mult: 0
    decay_mult: 0
  }
  scale_param {
    bias_term: true
  }
}
layer {
  name: "conv1_relu"
  type: "ReLU"
  bottom: "conv1"
  top: "conv1"
}
layer {
  name: "pool1"
  type: "Pooling"
  bottom: "conv1"
  top: "pool1"
  pooling_param {
    pool: MAX
    kernel_size: 3
    stride: 2
  }
}
layer {
  name: "res2a_branch1"
  type: "Convolution"
  bottom: "pool1"
  top: "res2a_branch1"
  param {
    lr_mult: 0
  }
  convolution_param {
    num_output: 256
    bias_term: false
    pad: 0
    kernel_size: 1
    stride: 1
  }
}
layer {
  name: "bn2a_branch1"
  type: "BatchNorm"
  bottom: "res2a_branch1"
  top: "res2a_branch1"
  param {
    lr_mult: 0
    decay_mult: 0
  }
  param {
    lr_mult: 0
    decay_mult: 0
  }
  param {
    lr_mult: 0
    decay_mult: 0
  }
  batch_norm_param {
    use_global_stats: true
  }
}
layer {
  name: "scale2a_branch1"
  type: "Scale"
  bottom: "res2a_branch1"
  top: "res2a_branch1"
  param {
    lr_mult: 0
    decay_mult: 0
  }
  param {
    lr_mult: 0
    decay_mult: 0
  }
  scale_param {
    bias_term: true
  }
}
layer {
  name: "res2a_branch2a"
  type: "Convolution"
  bottom: "pool1"
  top: "res2a_branch2a"
  param {
    lr_mult: 0
  }
  convolution_param {
    num_output: 64
    bias_term: false
    pad: 0
    kernel_size: 1
    stride: 1
  }
}
layer {
  name: "bn2a_branch2a"
  type: "BatchNorm"
  bottom: "res2a_branch2a"
  top: "res2a_branch2a"
  param {
    lr_mult: 0
    decay_mult: 0
  }
  param {
    lr_mult: 0
    decay_mult: 0
  }
  param {
    lr_mult: 0
    decay_mult: 0
  }
  batch_norm_param {
    use_global_stats: true
  }
}
layer {
  name: "scale2a_branch2a"
  type: "Scale"
  bottom: "res2a_branch2a"
  top: "res2a_branch2a"
  param {
    lr_mult: 0
    decay_mult: 0
  }
  param {
    lr_mult: 0
    decay_mult: 0
  }
  scale_param {
    bias_term: true
  }
}
layer {
  name: "res2a_branch2a_relu"
  type: "ReLU"
  bottom: "res2a_branch2a"
  top: "res2a_branch2a"
}
layer {
  name: "res2a_branch2b"
  type: "Convolution"
  bottom: "res2a_branch2a"
  top: "res2a_branch2b"
  param {
    lr_mult: 0
  }
  convolution_param {
    num_output: 64
    bias_term: false
    pad: 1
    kernel_size: 3
    stride: 1
  }
}
layer {
  name: "bn2a_branch2b"
  type: "BatchNorm"
  bottom: "res2a_branch2b"
  top: "res2a_branch2b"
  param {
    lr_mult: 0
    decay_mult: 0
  }
  param {
    lr_mult: 0
    decay_mult: 0
  }
  param {
    lr_mult: 0
    decay_mult: 0
  }
  batch_norm_param {
    use_global_stats: true
  }
}
layer {
  name: "scale2a_branch2b"
  type: "Scale"
  bottom: "res2a_branch2b"
  top: "res2a_branch2b"
  param {
    lr_mult: 0
    decay_mult: 0
  }
  param {
    lr_mult: 0
    decay_mult: 0
  }
  scale_param {
    bias_term: true
  }
}
layer {
  name: "res2a_branch2b_relu"
  type: "ReLU"
  bottom: "res2a_branch2b"
  top: "res2a_branch2b"
}
layer {
  name: "res2a_branch2c"
  type: "Convolution"
  bottom: "res2a_branch2b"
  top: "res2a_branch2c"
  param {
    lr_mult: 0
  }
  convolution_param {
    num_output: 256
    bias_term: false
    pad: 0
    kernel_size: 1
    stride: 1
  }
}
layer {
  name: "bn2a_branch2c"
  type: "BatchNorm"
  bottom: "res2a_branch2c"
  top: "res2a_branch2c"
  param {
    lr_mult: 0
    decay_mult: 0
  }
  param {
    lr_mult: 0
    decay_mult: 0
  }
  param {
    lr_mult: 0
    decay_mult: 0
  }
  batch_norm_param {
    use_global_stats: true
  }
}
layer {
  name: "scale2a_branch2c"
  type: "Scale"
  bottom: "res2a_branch2c"
  top: "res2a_branch2c"
  param {
    lr_mult: 0
    decay_mult: 0
  }
  param {
    lr_mult: 0
    decay_mult: 0
  }
  scale_param {
    bias_term: true
  }
}
layer {
  name: "res2a"
  type: "Eltwise"
  bottom: "res2a_branch1"
  bottom: "res2a_branch2c"
  top: "res2a"
}
layer {
  name: "res2a_relu"
  type: "ReLU"
  bottom: "res2a"
  top: "res2a"
}
layer {
  name: "res2b_branch2a"
  type: "Convolution"
  bottom: "res2a"
  top: "res2b_branch2a"
  param {
    lr_mult: 0
  }
  convolution_param {
    num_output: 64
    bias_term: false
    pad: 0
    kernel_size: 1
    stride: 1
  }
}
layer {
  name: "bn2b_branch2a"
  type: "BatchNorm"
  bottom: "res2b_branch2a"
  top: "res2b_branch2a"
  param {
    lr_mult: 0
    decay_mult: 0
  }
  param {
    lr_mult: 0
    decay_mult: 0
  }
  param {
    lr_mult: 0
    decay_mult: 0
  }
  batch_norm_param {
    use_global_stats: true
  }
}
layer {
  name: "scale2b_branch2a"
  type: "Scale"
  bottom: "res2b_branch2a"
  top: "res2b_branch2a"
  param {
    lr_mult: 0
    decay_mult: 0
  }
  param {
    lr_mult: 0
    decay_mult: 0
  }
  scale_param {
    bias_term: true
  }
}
layer {
  name: "res2b_branch2a_relu"
  type: "ReLU"
  bottom: "res2b_branch2a"
  top: "res2b_branch2a"
}
layer {
  name: "res2b_branch2b"
  type: "Convolution"
  bottom: "res2b_branch2a"
  top: "res2b_branch2b"
  param {
    lr_mult: 0
  }
  convolution_param {
    num_output: 64
    bias_term: false
    pad: 1
    kernel_size: 3
    stride: 1
  }
}
layer {
  name: "bn2b_branch2b"
  type: "BatchNorm"
  bottom: "res2b_branch2b"
  top: "res2b_branch2b"
  param {
    lr_mult: 0
    decay_mult: 0
  }
  param {
    lr_mult: 0
    decay_mult: 0
  }
  param {
    lr_mult: 0
    decay_mult: 0
  }
  batch_norm_param {
    use_global_stats: true
  }
}
layer {
  name: "scale2b_branch2b"
  type: "Scale"
  bottom: "res2b_branch2b"
  top: "res2b_branch2b"
  param {
    lr_mult: 0
    decay_mult: 0
  }
  param {
    lr_mult: 0
    decay_mult: 0
  }
  scale_param {
    bias_term: true
  }
}
layer {
  name: "res2b_branch2b_relu"
  type: "ReLU"
  bottom: "res2b_branch2b"
  top: "res2b_branch2b"
}
layer {
  name: "res2b_branch2c"
  type: "Convolution"
  bottom: "res2b_branch2b"
  top: "res2b_branch2c"
  param {
    lr_mult: 0
  }
  convolution_param {
    num_output: 256
    bias_term: false
    pad: 0
    kernel_size: 1
    stride: 1
  }
}
layer {
  name: "bn2b_branch2c"
  type: "BatchNorm"
  bottom: "res2b_branch2c"
  top: "res2b_branch2c"
  param {
    lr_mult: 0
    decay_mult: 0
  }
  param {
    lr_mult: 0
    decay_mult: 0
  }
  param {
    lr_mult: 0
    decay_mult: 0
  }
  batch_norm_param {
    use_global_stats: true
  }
}
layer {
  name: "scale2b_branch2c"
  type: "Scale"
  bottom: "res2b_branch2c"
  top: "res2b_branch2c"
  param {
    lr_mult: 0
    decay_mult: 0
  }
  param {
    lr_mult: 0
    decay_mult: 0
  }
  scale_param {
    bias_term: true
  }
}
layer {
  name: "res2b"
  type: "Eltwise"
  bottom: "res2a"
  bottom: "res2b_branch2c"
  top: "res2b"
}
layer {
  name: "res2b_relu"
  type: "ReLU"
  bottom: "res2b"
  top: "res2b"
}
layer {
  name: "res2c_branch2a"
  type: "Convolution"
  bottom: "res2b"
  top: "res2c_branch2a"
  param {
    lr_mult: 0
  }
  convolution_param {
    num_output: 64
    bias_term: false
    pad: 0
    kernel_size: 1
    stride: 1
  }
}
layer {
  name: "bn2c_branch2a"
  type: "BatchNorm"
  bottom: "res2c_branch2a"
  top: "res2c_branch2a"
  param {
    lr_mult: 0
    decay_mult: 0
  }
  param {
    lr_mult: 0
    decay_mult: 0
  }
  param {
    lr_mult: 0
    decay_mult: 0
  }
  batch_norm_param {
    use_global_stats: true
  }
}
layer {
  name: "scale2c_branch2a"
  type: "Scale"
  bottom: "res2c_branch2a"
  top: "res2c_branch2a"
  param {
    lr_mult: 0
    decay_mult: 0
  }
  param {
    lr_mult: 0
    decay_mult: 0
  }
  scale_param {
    bias_term: true
  }
}
layer {
  name: "res2c_branch2a_relu"
  type: "ReLU"
  bottom: "res2c_branch2a"
  top: "res2c_branch2a"
}
layer {
  name: "res2c_branch2b"
  type: "Convolution"
  bottom: "res2c_branch2a"
  top: "res2c_branch2b"
  param {
    lr_mult: 0
  }
  convolution_param {
    num_output: 64
    bias_term: false
    pad: 1
    kernel_size: 3
    stride: 1
  }
}
layer {
  name: "bn2c_branch2b"
  type: "BatchNorm"
  bottom: "res2c_branch2b"
  top: "res2c_branch2b"
  param {
    lr_mult: 0
    decay_mult: 0
  }
  param {
    lr_mult: 0
    decay_mult: 0
  }
  param {
    lr_mult: 0
    decay_mult: 0
  }
  batch_norm_param {
    use_global_stats: true
  }
}
layer {
  name: "scale2c_branch2b"
  type: "Scale"
  bottom: "res2c_branch2b"
  top: "res2c_branch2b"
  param {
    lr_mult: 0
    decay_mult: 0
  }
  param {
    lr_mult: 0
    decay_mult: 0
  }
  scale_param {
    bias_term: true
  }
}
layer {
  name: "res2c_branch2b_relu"
  type: "ReLU"
  bottom: "res2c_branch2b"
  top: "res2c_branch2b"
}
layer {
  name: "res2c_branch2c"
  type: "Convolution"
  bottom: "res2c_branch2b"
  top: "res2c_branch2c"
  param {
    lr_mult: 0
  }
  convolution_param {
    num_output: 256
    bias_term: false
    pad: 0
    kernel_size: 1
    stride: 1
  }
}
layer {
  name: "bn2c_branch2c"
  type: "BatchNorm"
  bottom: "res2c_branch2c"
  top: "res2c_branch2c"
  param {
    lr_mult: 0
    decay_mult: 0
  }
  param {
    lr_mult: 0
    decay_mult: 0
  }
  param {
    lr_mult: 0
    decay_mult: 0
  }
  batch_norm_param {
    use_global_stats: true
  }
}
layer {
  name: "scale2c_branch2c"
  type: "Scale"
  bottom: "res2c_branch2c"
  top: "res2c_branch2c"
  param {
    lr_mult: 0
    decay_mult: 0
  }
  param {
    lr_mult: 0
    decay_mult: 0
  }
  scale_param {
    bias_term: true
  }
}
layer {
  name: "res2c"
  type: "Eltwise"
  bottom: "res2b"
  bottom: "res2c_branch2c"
  top: "res2c"
}
layer {
  name: "res2c_relu"
  type: "ReLU"
  bottom: "res2c"
  top: "res2c"
}
layer {
  name: "res3a_branch1"
  type: "Convolution"
  bottom: "res2c"
  top: "res3a_branch1"
  param {
    lr_mult: 1
  }
  convolution_param {
    num_output: 512
    bias_term: false
    pad: 0
    kernel_size: 1
    stride: 2
  }
}
layer {
  name: "bn3a_branch1"
  type: "BatchNorm"
  bottom: "res3a_branch1"
  top: "res3a_branch1"
  param {
    lr_mult: 0
    decay_mult: 0
  }
  param {
    lr_mult: 0
    decay_mult: 0
  }
  param {
    lr_mult: 0
    decay_mult: 0
  }
  batch_norm_param {
    use_global_stats: true
  }
}
layer {
  name: "scale3a_branch1"
  type: "Scale"
  bottom: "res3a_branch1"
  top: "res3a_branch1"
  param {
    lr_mult: 0
    decay_mult: 0
  }
  param {
    lr_mult: 0
    decay_mult: 0
  }
  scale_param {
    bias_term: true
  }
}
layer {
  name: "res3a_branch2a"
  type: "Convolution"
  bottom: "res2c"
  top: "res3a_branch2a"
  param {
    lr_mult: 1
  }
  convolution_param {
    num_output: 128
    bias_term: false
    pad: 0
    kernel_size: 1
    stride: 2
  }
}
layer {
  name: "bn3a_branch2a"
  type: "BatchNorm"
  bottom: "res3a_branch2a"
  top: "res3a_branch2a"
  param {
    lr_mult: 0
    decay_mult: 0
  }
  param {
    lr_mult: 0
    decay_mult: 0
  }
  param {
    lr_mult: 0
    decay_mult: 0
  }
  batch_norm_param {
    use_global_stats: true
  }
}
layer {
  name: "scale3a_branch2a"
  type: "Scale"
  bottom: "res3a_branch2a"
  top: "res3a_branch2a"
  param {
    lr_mult: 0
    decay_mult: 0
  }
  param {
    lr_mult: 0
    decay_mult: 0
  }
  scale_param {
    bias_term: true
  }
}
layer {
  name: "res3a_branch2a_relu"
  type: "ReLU"
  bottom: "res3a_branch2a"
  top: "res3a_branch2a"
}
layer {
  name: "res3a_branch2b"
  type: "Convolution"
  bottom: "res3a_branch2a"
  top: "res3a_branch2b"
  param {
    lr_mult: 1
  }
  convolution_param {
    num_output: 128
    bias_term: false
    pad: 1
    kernel_size: 3
    stride: 1
  }
}
layer {
  name: "bn3a_branch2b"
  type: "BatchNorm"
  bottom: "res3a_branch2b"
  top: "res3a_branch2b"
  param {
    lr_mult: 0
    decay_mult: 0
  }
  param {
    lr_mult: 0
    decay_mult: 0
  }
  param {
    lr_mult: 0
    decay_mult: 0
  }
  batch_norm_param {
    use_global_stats: true
  }
}
layer {
  name: "scale3a_branch2b"
  type: "Scale"
  bottom: "res3a_branch2b"
  top: "res3a_branch2b"
  param {
    lr_mult: 0
    decay_mult: 0
  }
  param {
    lr_mult: 0
    decay_mult: 0
  }
  scale_param {
    bias_term: true
  }
}
layer {
  name: "res3a_branch2b_relu"
  type: "ReLU"
  bottom: "res3a_branch2b"
  top: "res3a_branch2b"
}
layer {
  name: "res3a_branch2c"
  type: "Convolution"
  bottom: "res3a_branch2b"
  top: "res3a_branch2c"
  param {
    lr_mult: 1
  }
  convolution_param {
    num_output: 512
    bias_term: false
    pad: 0
    kernel_size: 1
    stride: 1
  }
}
layer {
  name: "bn3a_branch2c"
  type: "BatchNorm"
  bottom: "res3a_branch2c"
  top: "res3a_branch2c"
  param {
    lr_mult: 0
    decay_mult: 0
  }
  param {
    lr_mult: 0
    decay_mult: 0
  }
  param {
    lr_mult: 0
    decay_mult: 0
  }
  batch_norm_param {
    use_global_stats: true
  }
}
layer {
  name: "scale3a_branch2c"
  type: "Scale"
  bottom: "res3a_branch2c"
  top: "res3a_branch2c"
  param {
    lr_mult: 0
    decay_mult: 0
  }
  param {
    lr_mult: 0
    decay_mult: 0
  }
  scale_param {
    bias_term: true
  }
}
layer {
  name: "res3a"
  type: "Eltwise"
  bottom: "res3a_branch1"
  bottom: "res3a_branch2c"
  top: "res3a"
}
layer {
  name: "res3a_relu"
  type: "ReLU"
  bottom: "res3a"
  top: "res3a"
}
layer {
  name: "res3b_branch2a"
  type: "Convolution"
  bottom: "res3a"
  top: "res3b_branch2a"
  param {
    lr_mult: 1
  }
  convolution_param {
    num_output: 128
    bias_term: false
    pad: 0
    kernel_size: 1
    stride: 1
  }
}
layer {
  name: "bn3b_branch2a"
  type: "BatchNorm"
  bottom: "res3b_branch2a"
  top: "res3b_branch2a"
  param {
    lr_mult: 0
    decay_mult: 0
  }
  param {
    lr_mult: 0
    decay_mult: 0
  }
  param {
    lr_mult: 0
    decay_mult: 0
  }
  batch_norm_param {
    use_global_stats: true
  }
}
layer {
  name: "scale3b_branch2a"
  type: "Scale"
  bottom: "res3b_branch2a"
  top: "res3b_branch2a"
  param {
    lr_mult: 0
    decay_mult: 0
  }
  param {
    lr_mult: 0
    decay_mult: 0
  }
  scale_param {
    bias_term: true
  }
}
layer {
  name: "res3b_branch2a_relu"
  type: "ReLU"
  bottom: "res3b_branch2a"
  top: "res3b_branch2a"
}
layer {
  name: "res3b_branch2b"
  type: "Convolution"
  bottom: "res3b_branch2a"
  top: "res3b_branch2b"
  param {
    lr_mult: 1
  }
  convolution_param {
    num_output: 128
    bias_term: false
    pad: 1
    kernel_size: 3
    stride: 1
  }
}
layer {
  name: "bn3b_branch2b"
  type: "BatchNorm"
  bottom: "res3b_branch2b"
  top: "res3b_branch2b"
  param {
    lr_mult: 0
    decay_mult: 0
  }
  param {
    lr_mult: 0
    decay_mult: 0
  }
  param {
    lr_mult: 0
    decay_mult: 0
  }
  batch_norm_param {
    use_global_stats: true
  }
}
layer {
  name: "scale3b_branch2b"
  type: "Scale"
  bottom: "res3b_branch2b"
  top: "res3b_branch2b"
  param {
    lr_mult: 0
    decay_mult: 0
  }
  param {
    lr_mult: 0
    decay_mult: 0
  }
  scale_param {
    bias_term: true
  }
}
layer {
  name: "res3b_branch2b_relu"
  type: "ReLU"
  bottom: "res3b_branch2b"
  top: "res3b_branch2b"
}
layer {
  name: "res3b_branch2c"
  type: "Convolution"
  bottom: "res3b_branch2b"
  top: "res3b_branch2c"
  param {
    lr_mult: 1
  }
  convolution_param {
    num_output: 512
    bias_term: false
    pad: 0
    kernel_size: 1
    stride: 1
  }
}
layer {
  name: "bn3b_branch2c"
  type: "BatchNorm"
  bottom: "res3b_branch2c"
  top: "res3b_branch2c"
  param {
    lr_mult: 0
    decay_mult: 0
  }
  param {
    lr_mult: 0
    decay_mult: 0
  }
  param {
    lr_mult: 0
    decay_mult: 0
  }
  batch_norm_param {
    use_global_stats: true
  }
}
layer {
  name: "scale3b_branch2c"
  type: "Scale"
  bottom: "res3b_branch2c"
  top: "res3b_branch2c"
  param {
    lr_mult: 0
    decay_mult: 0
  }
  param {
    lr_mult: 0
    decay_mult: 0
  }
  scale_param {
    bias_term: true
  }
}
layer {
  name: "res3b"
  type: "Eltwise"
  bottom: "res3a"
  bottom: "res3b_branch2c"
  top: "res3b"
}
layer {
  name: "res3b_relu"
  type: "ReLU"
  bottom: "res3b"
  top: "res3b"
}
layer {
  name: "res3c_branch2a"
  type: "Convolution"
  bottom: "res3b"
  top: "res3c_branch2a"
  param {
    lr_mult: 1
  }
  convolution_param {
    num_output: 128
    bias_term: false
    pad: 0
    kernel_size: 1
    stride: 1
  }
}
layer {
  name: "bn3c_branch2a"
  type: "BatchNorm"
  bottom: "res3c_branch2a"
  top: "res3c_branch2a"
  param {
    lr_mult: 0
    decay_mult: 0
  }
  param {
    lr_mult: 0
    decay_mult: 0
  }
  param {
    lr_mult: 0
    decay_mult: 0
  }
  batch_norm_param {
    use_global_stats: true
  }
}
layer {
  name: "scale3c_branch2a"
  type: "Scale"
  bottom: "res3c_branch2a"
  top: "res3c_branch2a"
  param {
    lr_mult: 0
    decay_mult: 0
  }
  param {
    lr_mult: 0
    decay_mult: 0
  }
  scale_param {
    bias_term: true
  }
}
layer {
  name: "res3c_branch2a_relu"
  type: "ReLU"
  bottom: "res3c_branch2a"
  top: "res3c_branch2a"
}
layer {
  name: "res3c_branch2b"
  type: "Convolution"
  bottom: "res3c_branch2a"
  top: "res3c_branch2b"
  param {
    lr_mult: 1
  }
  convolution_param {
    num_output: 128
    bias_term: false
    pad: 1
    kernel_size: 3
    stride: 1
  }
}
layer {
  name: "bn3c_branch2b"
  type: "BatchNorm"
  bottom: "res3c_branch2b"
  top: "res3c_branch2b"
  param {
    lr_mult: 0
    decay_mult: 0
  }
  param {
    lr_mult: 0
    decay_mult: 0
  }
  param {
    lr_mult: 0
    decay_mult: 0
  }
  batch_norm_param {
    use_global_stats: true
  }
}
layer {
  name: "scale3c_branch2b"
  type: "Scale"
  bottom: "res3c_branch2b"
  top: "res3c_branch2b"
  param {
    lr_mult: 0
    decay_mult: 0
  }
  param {
    lr_mult: 0
    decay_mult: 0
  }
  scale_param {
    bias_term: true
  }
}
layer {
  name: "res3c_branch2b_relu"
  type: "ReLU"
  bottom: "res3c_branch2b"
  top: "res3c_branch2b"
}
layer {
  name: "res3c_branch2c"
  type: "Convolution"
  bottom: "res3c_branch2b"
  top: "res3c_branch2c"
  param {
    lr_mult: 1
  }
  convolution_param {
    num_output: 512
    bias_term: false
    pad: 0
    kernel_size: 1
    stride: 1
  }
}
layer {
  name: "bn3c_branch2c"
  type: "BatchNorm"
  bottom: "res3c_branch2c"
  top: "res3c_branch2c"
  param {
    lr_mult: 0
    decay_mult: 0
  }
  param {
    lr_mult: 0
    decay_mult: 0
  }
  param {
    lr_mult: 0
    decay_mult: 0
  }
  batch_norm_param {
    use_global_stats: true
  }
}
layer {
  name: "scale3c_branch2c"
  type: "Scale"
  bottom: "res3c_branch2c"
  top: "res3c_branch2c"
  param {
    lr_mult: 0
    decay_mult: 0
  }
  param {
    lr_mult: 0
    decay_mult: 0
  }
  scale_param {
    bias_term: true
  }
}
layer {
  name: "res3c"
  type: "Eltwise"
  bottom: "res3b"
  bottom: "res3c_branch2c"
  top: "res3c"
}
layer {
  name: "res3c_relu"
  type: "ReLU"
  bottom: "res3c"
  top: "res3c"
}
layer {
  name: "res3d_branch2a"
  type: "Convolution"
  bottom: "res3c"
  top: "res3d_branch2a"
  param {
    lr_mult: 1
  }
  convolution_param {
    num_output: 128
    bias_term: false
    pad: 0
    kernel_size: 1
    stride: 1
  }
}
layer {
  name: "bn3d_branch2a"
  type: "BatchNorm"
  bottom: "res3d_branch2a"
  top: "res3d_branch2a"
  param {
    lr_mult: 0
    decay_mult: 0
  }
  param {
    lr_mult: 0
    decay_mult: 0
  }
  param {
    lr_mult: 0
    decay_mult: 0
  }
  batch_norm_param {
    use_global_stats: true
  }
}
layer {
  name: "scale3d_branch2a"
  type: "Scale"
  bottom: "res3d_branch2a"
  top: "res3d_branch2a"
  param {
    lr_mult: 0
    decay_mult: 0
  }
  param {
    lr_mult: 0
    decay_mult: 0
  }
  scale_param {
    bias_term: true
  }
}
layer {
  name: "res3d_branch2a_relu"
  type: "ReLU"
  bottom: "res3d_branch2a"
  top: "res3d_branch2a"
}
layer {
  name: "res3d_branch2b"
  type: "Convolution"
  bottom: "res3d_branch2a"
  top: "res3d_branch2b"
  param {
    lr_mult: 1
  }
  convolution_param {
    num_output: 128
    bias_term: false
    pad: 1
    kernel_size: 3
    stride: 1
  }
}
layer {
  name: "bn3d_branch2b"
  type: "BatchNorm"
  bottom: "res3d_branch2b"
  top: "res3d_branch2b"
  param {
    lr_mult: 0
    decay_mult: 0
  }
  param {
    lr_mult: 0
    decay_mult: 0
  }
  param {
    lr_mult: 0
    decay_mult: 0
  }
  batch_norm_param {
    use_global_stats: true
  }
}
layer {
  name: "scale3d_branch2b"
  type: "Scale"
  bottom: "res3d_branch2b"
  top: "res3d_branch2b"
  param {
    lr_mult: 0
    decay_mult: 0
  }
  param {
    lr_mult: 0
    decay_mult: 0
  }
  scale_param {
    bias_term: true
  }
}
layer {
  name: "res3d_branch2b_relu"
  type: "ReLU"
  bottom: "res3d_branch2b"
  top: "res3d_branch2b"
}
layer {
  name: "res3d_branch2c"
  type: "Convolution"
  bottom: "res3d_branch2b"
  top: "res3d_branch2c"
  param {
    lr_mult: 1
  }
  convolution_param {
    num_output: 512
    bias_term: false
    pad: 0
    kernel_size: 1
    stride: 1
  }
}
layer {
  name: "bn3d_branch2c"
  type: "BatchNorm"
  bottom: "res3d_branch2c"
  top: "res3d_branch2c"
  param {
    lr_mult: 0
    decay_mult: 0
  }
  param {
    lr_mult: 0
    decay_mult: 0
  }
  param {
    lr_mult: 0
    decay_mult: 0
  }
  batch_norm_param {
    use_global_stats: true
  }
}
layer {
  name: "scale3d_branch2c"
  type: "Scale"
  bottom: "res3d_branch2c"
  top: "res3d_branch2c"
  param {
    lr_mult: 0
    decay_mult: 0
  }
  param {
    lr_mult: 0
    decay_mult: 0
  }
  scale_param {
    bias_term: true
  }
}
layer {
  name: "res3d"
  type: "Eltwise"
  bottom: "res3c"
  bottom: "res3d_branch2c"
  top: "res3d"
}
layer {
  name: "res3d_relu"
  type: "ReLU"
  bottom: "res3d"
  top: "res3d"
}
layer {
  name: "res4a_branch1"
  type: "Convolution"
  bottom: "res3d"
  top: "res4a_branch1"
  param {
    lr_mult: 1
  }
  convolution_param {
    num_output: 1024
    bias_term: false
    pad: 0
    kernel_size: 1
    stride: 2
  }
}
layer {
  name: "bn4a_branch1"
  type: "BatchNorm"
  bottom: "res4a_branch1"
  top: "res4a_branch1"
  param {
    lr_mult: 0
    decay_mult: 0
  }
  param {
    lr_mult: 0
    decay_mult: 0
  }
  param {
    lr_mult: 0
    decay_mult: 0
  }
  batch_norm_param {
    use_global_stats: true
  }
}
layer {
  name: "scale4a_branch1"
  type: "Scale"
  bottom: "res4a_branch1"
  top: "res4a_branch1"
  param {
    lr_mult: 0
    decay_mult: 0
  }
  param {
    lr_mult: 0
    decay_mult: 0
  }
  scale_param {
    bias_term: true
  }
}
layer {
  name: "res4a_branch2a"
  type: "Convolution"
  bottom: "res3d"
  top: "res4a_branch2a"
  param {
    lr_mult: 1
  }
  convolution_param {
    num_output: 256
    bias_term: false
    pad: 0
    kernel_size: 1
    stride: 2
  }
}
layer {
  name: "bn4a_branch2a"
  type: "BatchNorm"
  bottom: "res4a_branch2a"
  top: "res4a_branch2a"
  param {
    lr_mult: 0
    decay_mult: 0
  }
  param {
    lr_mult: 0
    decay_mult: 0
  }
  param {
    lr_mult: 0
    decay_mult: 0
  }
  batch_norm_param {
    use_global_stats: true
  }
}
layer {
  name: "scale4a_branch2a"
  type: "Scale"
  bottom: "res4a_branch2a"
  top: "res4a_branch2a"
  param {
    lr_mult: 0
    decay_mult: 0
  }
  param {
    lr_mult: 0
    decay_mult: 0
  }
  scale_param {
    bias_term: true
  }
}
layer {
  name: "res4a_branch2a_relu"
  type: "ReLU"
  bottom: "res4a_branch2a"
  top: "res4a_branch2a"
}
layer {
  name: "res4a_branch2b"
  type: "Convolution"
  bottom: "res4a_branch2a"
  top: "res4a_branch2b"
  param {
    lr_mult: 1
  }
  convolution_param {
    num_output: 256
    bias_term: false
    pad: 1
    kernel_size: 3
    stride: 1
  }
}
layer {
  name: "bn4a_branch2b"
  type: "BatchNorm"
  bottom: "res4a_branch2b"
  top: "res4a_branch2b"
  param {
    lr_mult: 0
    decay_mult: 0
  }
  param {
    lr_mult: 0
    decay_mult: 0
  }
  param {
    lr_mult: 0
    decay_mult: 0
  }
  batch_norm_param {
    use_global_stats: true
  }
}
layer {
  name: "scale4a_branch2b"
  type: "Scale"
  bottom: "res4a_branch2b"
  top: "res4a_branch2b"
  param {
    lr_mult: 0
    decay_mult: 0
  }
  param {
    lr_mult: 0
    decay_mult: 0
  }
  scale_param {
    bias_term: true
  }
}
layer {
  name: "res4a_branch2b_relu"
  type: "ReLU"
  bottom: "res4a_branch2b"
  top: "res4a_branch2b"
}
layer {
  name: "res4a_branch2c"
  type: "Convolution"
  bottom: "res4a_branch2b"
  top: "res4a_branch2c"
  param {
    lr_mult: 1
  }
  convolution_param {
    num_output: 1024
    bias_term: false
    pad: 0
    kernel_size: 1
    stride: 1
  }
}
layer {
  name: "bn4a_branch2c"
  type: "BatchNorm"
  bottom: "res4a_branch2c"
  top: "res4a_branch2c"
  param {
    lr_mult: 0
    decay_mult: 0
  }
  param {
    lr_mult: 0
    decay_mult: 0
  }
  param {
    lr_mult: 0
    decay_mult: 0
  }
  batch_norm_param {
    use_global_stats: true
  }
}
layer {
  name: "scale4a_branch2c"
  type: "Scale"
  bottom: "res4a_branch2c"
  top: "res4a_branch2c"
  param {
    lr_mult: 0
    decay_mult: 0
  }
  param {
    lr_mult: 0
    decay_mult: 0
  }
  scale_param {
    bias_term: true
  }
}
layer {
  name: "res4a"
  type: "Eltwise"
  bottom: "res4a_branch1"
  bottom: "res4a_branch2c"
  top: "res4a"
}
layer {
  name: "res4a_relu"
  type: "ReLU"
  bottom: "res4a"
  top: "res4a"
}
layer {
  name: "res4b_branch2a"
  type: "Convolution"
  bottom: "res4a"
  top: "res4b_branch2a"
  param {
    lr_mult: 1
  }
  convolution_param {
    num_output: 256
    bias_term: false
    pad: 0
    kernel_size: 1
    stride: 1
  }
}
layer {
  name: "bn4b_branch2a"
  type: "BatchNorm"
  bottom: "res4b_branch2a"
  top: "res4b_branch2a"
  param {
    lr_mult: 0
    decay_mult: 0
  }
  param {
    lr_mult: 0
    decay_mult: 0
  }
  param {
    lr_mult: 0
    decay_mult: 0
  }
  batch_norm_param {
    use_global_stats: true
  }
}
layer {
  name: "scale4b_branch2a"
  type: "Scale"
  bottom: "res4b_branch2a"
  top: "res4b_branch2a"
  param {
    lr_mult: 0
    decay_mult: 0
  }
  param {
    lr_mult: 0
    decay_mult: 0
  }
  scale_param {
    bias_term: true
  }
}
layer {
  name: "res4b_branch2a_relu"
  type: "ReLU"
  bottom: "res4b_branch2a"
  top: "res4b_branch2a"
}
layer {
  name: "res4b_branch2b"
  type: "Convolution"
  bottom: "res4b_branch2a"
  top: "res4b_branch2b"
  param {
    lr_mult: 1
  }
  convolution_param {
    num_output: 256
    bias_term: false
    pad: 1
    kernel_size: 3
    stride: 1
  }
}
layer {
  name: "bn4b_branch2b"
  type: "BatchNorm"
  bottom: "res4b_branch2b"
  top: "res4b_branch2b"
  param {
    lr_mult: 0
    decay_mult: 0
  }
  param {
    lr_mult: 0
    decay_mult: 0
  }
  param {
    lr_mult: 0
    decay_mult: 0
  }
  batch_norm_param {
    use_global_stats: true
  }
}
layer {
  name: "scale4b_branch2b"
  type: "Scale"
  bottom: "res4b_branch2b"
  top: "res4b_branch2b"
  param {
    lr_mult: 0
    decay_mult: 0
  }
  param {
    lr_mult: 0
    decay_mult: 0
  }
  scale_param {
    bias_term: true
  }
}
layer {
  name: "res4b_branch2b_relu"
  type: "ReLU"
  bottom: "res4b_branch2b"
  top: "res4b_branch2b"
}
layer {
  name: "res4b_branch2c"
  type: "Convolution"
  bottom: "res4b_branch2b"
  top: "res4b_branch2c"
  param {
    lr_mult: 1
  }
  convolution_param {
    num_output: 1024
    bias_term: false
    pad: 0
    kernel_size: 1
    stride: 1
  }
}
layer {
  name: "bn4b_branch2c"
  type: "BatchNorm"
  bottom: "res4b_branch2c"
  top: "res4b_branch2c"
  param {
    lr_mult: 0
    decay_mult: 0
  }
  param {
    lr_mult: 0
    decay_mult: 0
  }
  param {
    lr_mult: 0
    decay_mult: 0
  }
  batch_norm_param {
    use_global_stats: true
  }
}
layer {
  name: "scale4b_branch2c"
  type: "Scale"
  bottom: "res4b_branch2c"
  top: "res4b_branch2c"
  param {
    lr_mult: 0
    decay_mult: 0
  }
  param {
    lr_mult: 0
    decay_mult: 0
  }
  scale_param {
    bias_term: true
  }
}
layer {
  name: "res4b"
  type: "Eltwise"
  bottom: "res4a"
  bottom: "res4b_branch2c"
  top: "res4b"
}
layer {
  name: "res4b_relu"
  type: "ReLU"
  bottom: "res4b"
  top: "res4b"
}
layer {
  name: "res4c_branch2a"
  type: "Convolution"
  bottom: "res4b"
  top: "res4c_branch2a"
  param {
    lr_mult: 1
  }
  convolution_param {
    num_output: 256
    bias_term: false
    pad: 0
    kernel_size: 1
    stride: 1
  }
}
layer {
  name: "bn4c_branch2a"
  type: "BatchNorm"
  bottom: "res4c_branch2a"
  top: "res4c_branch2a"
  param {
    lr_mult: 0
    decay_mult: 0
  }
  param {
    lr_mult: 0
    decay_mult: 0
  }
  param {
    lr_mult: 0
    decay_mult: 0
  }
  batch_norm_param {
    use_global_stats: true
  }
}
layer {
  name: "scale4c_branch2a"
  type: "Scale"
  bottom: "res4c_branch2a"
  top: "res4c_branch2a"
  param {
    lr_mult: 0
    decay_mult: 0
  }
  param {
    lr_mult: 0
    decay_mult: 0
  }
  scale_param {
    bias_term: true
  }
}
layer {
  name: "res4c_branch2a_relu"
  type: "ReLU"
  bottom: "res4c_branch2a"
  top: "res4c_branch2a"
}
layer {
  name: "res4c_branch2b"
  type: "Convolution"
  bottom: "res4c_branch2a"
  top: "res4c_branch2b"
  param {
    lr_mult: 1
  }
  convolution_param {
    num_output: 256
    bias_term: false
    pad: 1
    kernel_size: 3
    stride: 1
  }
}
layer {
  name: "bn4c_branch2b"
  type: "BatchNorm"
  bottom: "res4c_branch2b"
  top: "res4c_branch2b"
  param {
    lr_mult: 0
    decay_mult: 0
  }
  param {
    lr_mult: 0
    decay_mult: 0
  }
  param {
    lr_mult: 0
    decay_mult: 0
  }
  batch_norm_param {
    use_global_stats: true
  }
}
layer {
  name: "scale4c_branch2b"
  type: "Scale"
  bottom: "res4c_branch2b"
  top: "res4c_branch2b"
  param {
    lr_mult: 0
    decay_mult: 0
  }
  param {
    lr_mult: 0
    decay_mult: 0
  }
  scale_param {
    bias_term: true
  }
}
layer {
  name: "res4c_branch2b_relu"
  type: "ReLU"
  bottom: "res4c_branch2b"
  top: "res
I0617 13:06:22.801985 15212 layer_factory.hpp:77] Creating layer input
I0617 13:06:22.802027 15212 net.cpp:100] Creating Layer input
I0617 13:06:22.802054 15212 net.cpp:418] input -> data
I0617 13:06:22.802093 15212 net.cpp:418] input -> rois
I0617 13:06:22.822132 15212 net.cpp:150] Setting up input
I0617 13:06:22.822197 15212 net.cpp:157] Top shape: 1 3 224 224 (150528)
I0617 13:06:22.822222 15212 net.cpp:157] Top shape: 1 5 (5)
I0617 13:06:22.822243 15212 net.cpp:165] Memory required for data: 602132
I0617 13:06:22.822268 15212 layer_factory.hpp:77] Creating layer rois_input_1_split
I0617 13:06:22.822299 15212 net.cpp:100] Creating Layer rois_input_1_split
I0617 13:06:22.822321 15212 net.cpp:444] rois_input_1_split <- rois
I0617 13:06:22.822350 15212 net.cpp:418] rois_input_1_split -> rois_input_1_split_0
I0617 13:06:22.822379 15212 net.cpp:418] rois_input_1_split -> rois_input_1_split_1
I0617 13:06:22.822405 15212 net.cpp:418] rois_input_1_split -> rois_input_1_split_2
I0617 13:06:22.822430 15212 net.cpp:418] rois_input_1_split -> rois_input_1_split_3
I0617 13:06:22.822453 15212 net.cpp:418] rois_input_1_split -> rois_input_1_split_4
I0617 13:06:22.822477 15212 net.cpp:418] rois_input_1_split -> rois_input_1_split_5
I0617 13:06:22.822582 15212 net.cpp:150] Setting up rois_input_1_split
I0617 13:06:22.822612 15212 net.cpp:157] Top shape: 1 5 (5)
I0617 13:06:22.822633 15212 net.cpp:157] Top shape: 1 5 (5)
I0617 13:06:22.822655 15212 net.cpp:157] Top shape: 1 5 (5)
I0617 13:06:22.822677 15212 net.cpp:157] Top shape: 1 5 (5)
I0617 13:06:22.822698 15212 net.cpp:157] Top shape: 1 5 (5)
I0617 13:06:22.822720 15212 net.cpp:157] Top shape: 1 5 (5)
I0617 13:06:22.822739 15212 net.cpp:165] Memory required for data: 602252
I0617 13:06:22.822760 15212 layer_factory.hpp:77] Creating layer conv1
I0617 13:06:22.822791 15212 net.cpp:100] Creating Layer conv1
I0617 13:06:22.822814 15212 net.cpp:444] conv1 <- data
I0617 13:06:22.822839 15212 net.cpp:418] conv1 -> conv1
I0617 13:06:22.823637 15212 net.cpp:150] Setting up conv1
I0617 13:06:22.823673 15212 net.cpp:157] Top shape: 1 64 112 112 (802816)
I0617 13:06:22.823696 15212 net.cpp:165] Memory required for data: 3813516
I0617 13:06:22.823727 15212 layer_factory.hpp:77] Creating layer bn_conv1
I0617 13:06:22.823757 15212 net.cpp:100] Creating Layer bn_conv1
I0617 13:06:22.823781 15212 net.cpp:444] bn_conv1 <- conv1
I0617 13:06:22.823814 15212 net.cpp:405] bn_conv1 -> conv1 (in-place)
I0617 13:06:22.824018 15212 net.cpp:150] Setting up bn_conv1
I0617 13:06:22.824046 15212 net.cpp:157] Top shape: 1 64 112 112 (802816)
I0617 13:06:22.824067 15212 net.cpp:165] Memory required for data: 7024780
I0617 13:06:22.824098 15212 layer_factory.hpp:77] Creating layer scale_conv1
I0617 13:06:22.824126 15212 net.cpp:100] Creating Layer scale_conv1
I0617 13:06:22.824149 15212 net.cpp:444] scale_conv1 <- conv1
I0617 13:06:22.824172 15212 net.cpp:405] scale_conv1 -> conv1 (in-place)
I0617 13:06:22.824236 15212 layer_factory.hpp:77] Creating layer scale_conv1
I0617 13:06:22.824381 15212 net.cpp:150] Setting up scale_conv1
I0617 13:06:22.824412 15212 net.cpp:157] Top shape: 1 64 112 112 (802816)
I0617 13:06:22.824435 15212 net.cpp:165] Memory required for data: 10236044
I0617 13:06:22.824460 15212 layer_factory.hpp:77] Creating layer conv1_relu
I0617 13:06:22.824486 15212 net.cpp:100] Creating Layer conv1_relu
I0617 13:06:22.824506 15212 net.cpp:444] conv1_relu <- conv1
I0617 13:06:22.824530 15212 net.cpp:405] conv1_relu -> conv1 (in-place)
I0617 13:06:22.824556 15212 net.cpp:150] Setting up conv1_relu
I0617 13:06:22.824579 15212 net.cpp:157] Top shape: 1 64 112 112 (802816)
I0617 13:06:22.824591 15212 net.cpp:165] Memory required for data: 13447308
I0617 13:06:22.824612 15212 layer_factory.hpp:77] Creating layer pool1
I0617 13:06:22.824636 15212 net.cpp:100] Creating Layer pool1
I0617 13:06:22.824658 15212 net.cpp:444] pool1 <- conv1
I0617 13:06:22.824681 15212 net.cpp:418] pool1 -> pool1
I0617 13:06:22.824739 15212 net.cpp:150] Setting up pool1
I0617 13:06:22.824766 15212 net.cpp:157] Top shape: 1 64 56 56 (200704)
I0617 13:06:22.824787 15212 net.cpp:165] Memory required for data: 14250124
I0617 13:06:22.824808 15212 layer_factory.hpp:77] Creating layer pool1_pool1_0_split
I0617 13:06:22.824831 15212 net.cpp:100] Creating Layer pool1_pool1_0_split
I0617 13:06:22.824852 15212 net.cpp:444] pool1_pool1_0_split <- pool1
I0617 13:06:22.824877 15212 net.cpp:418] pool1_pool1_0_split -> pool1_pool1_0_split_0
I0617 13:06:22.824903 15212 net.cpp:418] pool1_pool1_0_split -> pool1_pool1_0_split_1
I0617 13:06:22.824955 15212 net.cpp:150] Setting up pool1_pool1_0_split
I0617 13:06:22.824980 15212 net.cpp:157] Top shape: 1 64 56 56 (200704)
I0617 13:06:22.825003 15212 net.cpp:157] Top shape: 1 64 56 56 (200704)
I0617 13:06:22.825022 15212 net.cpp:165] Memory required for data: 15855756
I0617 13:06:22.825044 15212 layer_factory.hpp:77] Creating layer res2a_branch1
I0617 13:06:22.825072 15212 net.cpp:100] Creating Layer res2a_branch1
I0617 13:06:22.825093 15212 net.cpp:444] res2a_branch1 <- pool1_pool1_0_split_0
I0617 13:06:22.825119 15212 net.cpp:418] res2a_branch1 -> res2a_branch1
I0617 13:06:22.825305 15212 net.cpp:150] Setting up res2a_branch1
I0617 13:06:22.825335 15212 net.cpp:157] Top shape: 1 256 56 56 (802816)
I0617 13:06:22.825356 15212 net.cpp:165] Memory required for data: 19067020
I0617 13:06:22.825379 15212 layer_factory.hpp:77] Creating layer bn2a_branch1
I0617 13:06:22.825405 15212 net.cpp:100] Creating Layer bn2a_branch1
I0617 13:06:22.825426 15212 net.cpp:444] bn2a_branch1 <- res2a_branch1
I0617 13:06:22.825451 15212 net.cpp:405] bn2a_branch1 -> res2a_branch1 (in-place)
I0617 13:06:22.826225 15212 net.cpp:150] Setting up bn2a_branch1
I0617 13:06:22.826262 15212 net.cpp:157] Top shape: 1 256 56 56 (802816)
I0617 13:06:22.826285 15212 net.cpp:165] Memory required for data: 22278284
I0617 13:06:22.826315 15212 layer_factory.hpp:77] Creating layer scale2a_branch1
I0617 13:06:22.826344 15212 net.cpp:100] Creating Layer scale2a_branch1
I0617 13:06:22.826366 15212 net.cpp:444] scale2a_branch1 <- res2a_branch1
I0617 13:06:22.826390 15212 net.cpp:405] scale2a_branch1 -> res2a_branch1 (in-place)
I0617 13:06:22.826450 15212 layer_factory.hpp:77] Creating layer scale2a_branch1
I0617 13:06:22.826586 15212 net.cpp:150] Setting up scale2a_branch1
I0617 13:06:22.826614 15212 net.cpp:157] Top shape: 1 256 56 56 (802816)
I0617 13:06:22.826635 15212 net.cpp:165] Memory required for data: 25489548
I0617 13:06:22.826669 15212 layer_factory.hpp:77] Creating layer res2a_branch2a
I0617 13:06:22.826699 15212 net.cpp:100] Creating Layer res2a_branch2a
I0617 13:06:22.826721 15212 net.cpp:444] res2a_branch2a <- pool1_pool1_0_split_1
I0617 13:06:22.826740 15212 net.cpp:418] res2a_branch2a -> res2a_branch2a
I0617 13:06:22.826938 15212 net.cpp:150] Setting up res2a_branch2a
I0617 13:06:22.826969 15212 net.cpp:157] Top shape: 1 64 56 56 (200704)
I0617 13:06:22.826990 15212 net.cpp:165] Memory required for data: 26292364
I0617 13:06:22.827013 15212 layer_factory.hpp:77] Creating layer bn2a_branch2a
I0617 13:06:22.827039 15212 net.cpp:100] Creating Layer bn2a_branch2a
I0617 13:06:22.827059 15212 net.cpp:444] bn2a_branch2a <- res2a_branch2a
I0617 13:06:22.827085 15212 net.cpp:405] bn2a_branch2a -> res2a_branch2a (in-place)
I0617 13:06:22.827278 15212 net.cpp:150] Setting up bn2a_branch2a
I0617 13:06:22.827307 15212 net.cpp:157] Top shape: 1 64 56 56 (200704)
I0617 13:06:22.827328 15212 net.cpp:165] Memory required for data: 27095180
I0617 13:06:22.827358 15212 layer_factory.hpp:77] Creating layer scale2a_branch2a
I0617 13:06:22.827379 15212 net.cpp:100] Creating Layer scale2a_branch2a
I0617 13:06:22.827401 15212 net.cpp:444] scale2a_branch2a <- res2a_branch2a
I0617 13:06:22.827425 15212 net.cpp:405] scale2a_branch2a -> res2a_branch2a (in-place)
I0617 13:06:22.827486 15212 layer_factory.hpp:77] Creating layer scale2a_branch2a
I0617 13:06:22.827622 15212 net.cpp:150] Setting up scale2a_branch2a
I0617 13:06:22.827652 15212 net.cpp:157] Top shape: 1 64 56 56 (200704)
I0617 13:06:22.827673 15212 net.cpp:165] Memory required for data: 27897996
I0617 13:06:22.827698 15212 layer_factory.hpp:77] Creating layer res2a_branch2a_relu
I0617 13:06:22.827723 15212 net.cpp:100] Creating Layer res2a_branch2a_relu
I0617 13:06:22.827746 15212 net.cpp:444] res2a_branch2a_relu <- res2a_branch2a
I0617 13:06:22.827769 15212 net.cpp:405] res2a_branch2a_relu -> res2a_branch2a (in-place)
I0617 13:06:22.827792 15212 net.cpp:150] Setting up res2a_branch2a_relu
I0617 13:06:22.827816 15212 net.cpp:157] Top shape: 1 64 56 56 (200704)
I0617 13:06:22.827837 15212 net.cpp:165] Memory required for data: 28700812
I0617 13:06:22.827858 15212 layer_factory.hpp:77] Creating layer res2a_branch2b
I0617 13:06:22.827885 15212 net.cpp:100] Creating Layer res2a_branch2b
I0617 13:06:22.827908 15212 net.cpp:444] res2a_branch2b <- res2a_branch2a
I0617 13:06:22.827934 15212 net.cpp:418] res2a_branch2b -> res2a_branch2b
I0617 13:06:22.828691 15212 net.cpp:150] Setting up res2a_branch2b
I0617 13:06:22.828725 15212 net.cpp:157] Top shape: 1 64 56 56 (200704)
I0617 13:06:22.828748 15212 net.cpp:165] Memory required for data: 29503628
I0617 13:06:22.828773 15212 layer_factory.hpp:77] Creating layer bn2a_branch2b
I0617 13:06:22.828799 15212 net.cpp:100] Creating Layer bn2a_branch2b
I0617 13:06:22.828821 15212 net.cpp:444] bn2a_branch2b <- res2a_branch2b
I0617 13:06:22.828850 15212 net.cpp:405] bn2a_branch2b -> res2a_branch2b (in-place)
I0617 13:06:22.829051 15212 net.cpp:150] Setting up bn2a_branch2b
I0617 13:06:22.829080 15212 net.cpp:157] Top shape: 1 64 56 56 (200704)
I0617 13:06:22.829102 15212 net.cpp:165] Memory required for data: 30306444
I0617 13:06:22.829128 15212 layer_factory.hpp:77] Creating layer scale2a_branch2b
I0617 13:06:22.829154 15212 net.cpp:100] Creating Layer scale2a_branch2b
I0617 13:06:22.829176 15212 net.cpp:444] scale2a_branch2b <- res2a_branch2b
I0617 13:06:22.829202 15212 net.cpp:405] scale2a_branch2b -> res2a_branch2b (in-place)
I0617 13:06:22.829260 15212 layer_factory.hpp:77] Creating layer scale2a_branch2b
I0617 13:06:22.829401 15212 net.cpp:150] Setting up scale2a_branch2b
I0617 13:06:22.829430 15212 net.cpp:157] Top shape: 1 64 56 56 (200704)
I0617 13:06:22.829452 15212 net.cpp:165] Memory required for data: 31109260
I0617 13:06:22.829475 15212 layer_factory.hpp:77] Creating layer res2a_branch2b_relu
I0617 13:06:22.829499 15212 net.cpp:100] Creating Layer res2a_branch2b_relu
I0617 13:06:22.829520 15212 net.cpp:444] res2a_branch2b_relu <- res2a_branch2b
I0617 13:06:22.829551 15212 net.cpp:405] res2a_branch2b_relu -> res2a_branch2b (in-place)
I0617 13:06:22.829576 15212 net.cpp:150] Setting up res2a_branch2b_relu
I0617 13:06:22.829601 15212 net.cpp:157] Top shape: 1 64 56 56 (200704)
I0617 13:06:22.829620 15212 net.cpp:165] Memory required for data: 31912076
I0617 13:06:22.829684 15212 layer_factory.hpp:77] Creating layer res2a_branch2c
I0617 13:06:22.829713 15212 net.cpp:100] Creating Layer res2a_branch2c
I0617 13:06:22.829736 15212 net.cpp:444] res2a_branch2c <- res2a_branch2b
I0617 13:06:22.829763 15212 net.cpp:418] res2a_branch2c -> res2a_branch2c
I0617 13:06:22.829967 15212 net.cpp:150] Setting up res2a_branch2c
I0617 13:06:22.829996 15212 net.cpp:157] Top shape: 1 256 56 56 (802816)
I0617 13:06:22.830018 15212 net.cpp:165] Memory required for data: 35123340
I0617 13:06:22.830040 15212 layer_factory.hpp:77] Creating layer bn2a_branch2c
I0617 13:06:22.830066 15212 net.cpp:100] Creating Layer bn2a_branch2c
I0617 13:06:22.830088 15212 net.cpp:444] bn2a_branch2c <- res2a_branch2c
I0617 13:06:22.830113 15212 net.cpp:405] bn2a_branch2c -> res2a_branch2c (in-place)
I0617 13:06:22.830305 15212 net.cpp:150] Setting up bn2a_branch2c
I0617 13:06:22.830334 15212 net.cpp:157] Top shape: 1 256 56 56 (802816)
I0617 13:06:22.830355 15212 net.cpp:165] Memory required for data: 38334604
I0617 13:06:22.830381 15212 layer_factory.hpp:77] Creating layer scale2a_branch2c
I0617 13:06:22.830406 15212 net.cpp:100] Creating Layer scale2a_branch2c
I0617 13:06:22.830428 15212 net.cpp:444] scale2a_branch2c <- res2a_branch2c
I0617 13:06:22.830451 15212 net.cpp:405] scale2a_branch2c -> res2a_branch2c (in-place)
I0617 13:06:22.830509 15212 layer_factory.hpp:77] Creating layer scale2a_branch2c
I0617 13:06:22.830643 15212 net.cpp:150] Setting up scale2a_branch2c
I0617 13:06:22.830672 15212 net.cpp:157] Top shape: 1 256 56 56 (802816)
I0617 13:06:22.830693 15212 net.cpp:165] Memory required for data: 41545868
I0617 13:06:22.830719 15212 layer_factory.hpp:77] Creating layer res2a
I0617 13:06:22.830745 15212 net.cpp:100] Creating Layer res2a
I0617 13:06:22.830768 15212 net.cpp:444] res2a <- res2a_branch1
I0617 13:06:22.830791 15212 net.cpp:444] res2a <- res2a_branch2c
I0617 13:06:22.830814 15212 net.cpp:418] res2a -> res2a
I0617 13:06:22.830862 15212 net.cpp:150] Setting up res2a
I0617 13:06:22.830889 15212 net.cpp:157] Top shape: 1 256 56 56 (802816)
I0617 13:06:22.830910 15212 net.cpp:165] Memory required for data: 44757132
I0617 13:06:22.830931 15212 layer_factory.hpp:77] Creating layer res2a_relu
I0617 13:06:22.830957 15212 net.cpp:100] Creating Layer res2a_relu
I0617 13:06:22.830974 15212 net.cpp:444] res2a_relu <- res2a
I0617 13:06:22.830996 15212 net.cpp:405] res2a_relu -> res2a (in-place)
I0617 13:06:22.831020 15212 net.cpp:150] Setting up res2a_relu
I0617 13:06:22.831043 15212 net.cpp:157] Top shape: 1 256 56 56 (802816)
I0617 13:06:22.831064 15212 net.cpp:165] Memory required for data: 47968396
I0617 13:06:22.831085 15212 layer_factory.hpp:77] Creating layer res2a_res2a_relu_0_split
I0617 13:06:22.831109 15212 net.cpp:100] Creating Layer res2a_res2a_relu_0_split
I0617 13:06:22.831130 15212 net.cpp:444] res2a_res2a_relu_0_split <- res2a
I0617 13:06:22.831156 15212 net.cpp:418] res2a_res2a_relu_0_split -> res2a_res2a_relu_0_split_0
I0617 13:06:22.831182 15212 net.cpp:418] res2a_res2a_relu_0_split -> res2a_res2a_relu_0_split_1
I0617 13:06:22.831234 15212 net.cpp:150] Setting up res2a_res2a_relu_0_split
I0617 13:06:22.831261 15212 net.cpp:157] Top shape: 1 256 56 56 (802816)
I0617 13:06:22.831284 15212 net.cpp:157] Top shape: 1 256 56 56 (802816)
I0617 13:06:22.831305 15212 net.cpp:165] Memory required for data: 54390924
I0617 13:06:22.831326 15212 layer_factory.hpp:77] Creating layer res2b_branch2a
I0617 13:06:22.831356 15212 net.cpp:100] Creating Layer res2b_branch2a
I0617 13:06:22.831377 15212 net.cpp:444] res2b_branch2a <- res2a_res2a_relu_0_split_0
I0617 13:06:22.831403 15212 net.cpp:418] res2b_branch2a -> res2b_branch2a
I0617 13:06:22.831599 15212 net.cpp:150] Setting up res2b_branch2a
I0617 13:06:22.831627 15212 net.cpp:157] Top shape: 1 64 56 56 (200704)
I0617 13:06:22.831650 15212 net.cpp:165] Memory required for data: 55193740
I0617 13:06:22.831673 15212 layer_factory.hpp:77] Creating layer bn2b_branch2a
I0617 13:06:22.831698 15212 net.cpp:100] Creating Layer bn2b_branch2a
I0617 13:06:22.831720 15212 net.cpp:444] bn2b_branch2a <- res2b_branch2a
I0617 13:06:22.831746 15212 net.cpp:405] bn2b_branch2a -> res2b_branch2a (in-place)
I0617 13:06:22.831946 15212 net.cpp:150] Setting up bn2b_branch2a
I0617 13:06:22.831975 15212 net.cpp:157] Top shape: 1 64 56 56 (200704)
I0617 13:06:22.831996 15212 net.cpp:165] Memory required for data: 55996556
I0617 13:06:22.832026 15212 layer_factory.hpp:77] Creating layer scale2b_branch2a
I0617 13:06:22.832044 15212 net.cpp:100] Creating Layer scale2b_branch2a
I0617 13:06:22.832065 15212 net.cpp:444] scale2b_branch2a <- res2b_branch2a
I0617 13:06:22.832089 15212 net.cpp:405] scale2b_branch2a -> res2b_branch2a (in-place)
I0617 13:06:22.832151 15212 layer_factory.hpp:77] Creating layer scale2b_branch2a
I0617 13:06:22.832291 15212 net.cpp:150] Setting up scale2b_branch2a
I0617 13:06:22.832320 15212 net.cpp:157] Top shape: 1 64 56 56 (200704)
I0617 13:06:22.832341 15212 net.cpp:165] Memory required for data: 56799372
I0617 13:06:22.832367 15212 layer_factory.hpp:77] Creating layer res2b_branch2a_relu
I0617 13:06:22.832391 15212 net.cpp:100] Creating Layer res2b_branch2a_relu
I0617 13:06:22.832412 15212 net.cpp:444] res2b_branch2a_relu <- res2b_branch2a
I0617 13:06:22.832437 15212 net.cpp:405] res2b_branch2a_relu -> res2b_branch2a (in-place)
I0617 13:06:22.832461 15212 net.cpp:150] Setting up res2b_branch2a_relu
I0617 13:06:22.832485 15212 net.cpp:157] Top shape: 1 64 56 56 (200704)
I0617 13:06:22.832506 15212 net.cpp:165] Memory required for data: 57602188
I0617 13:06:22.832527 15212 layer_factory.hpp:77] Creating layer res2b_branch2b
I0617 13:06:22.832552 15212 net.cpp:100] Creating Layer res2b_branch2b
I0617 13:06:22.832574 15212 net.cpp:444] res2b_branch2b <- res2b_branch2a
I0617 13:06:22.832599 15212 net.cpp:418] res2b_branch2b -> res2b_branch2b
I0617 13:06:22.832811 15212 net.cpp:150] Setting up res2b_branch2b
I0617 13:06:22.832842 15212 net.cpp:157] Top shape: 1 64 56 56 (200704)
I0617 13:06:22.832864 15212 net.cpp:165] Memory required for data: 58405004
I0617 13:06:22.832887 15212 layer_factory.hpp:77] Creating layer bn2b_branch2b
I0617 13:06:22.832913 15212 net.cpp:100] Creating Layer bn2b_branch2b
I0617 13:06:22.832936 15212 net.cpp:444] bn2b_branch2b <- res2b_branch2b
I0617 13:06:22.832958 15212 net.cpp:405] bn2b_branch2b -> res2b_branch2b (in-place)
I0617 13:06:22.833165 15212 net.cpp:150] Setting up bn2b_branch2b
I0617 13:06:22.833194 15212 net.cpp:157] Top shape: 1 64 56 56 (200704)
I0617 13:06:22.833215 15212 net.cpp:165] Memory required for data: 59207820
I0617 13:06:22.833241 15212 layer_factory.hpp:77] Creating layer scale2b_branch2b
I0617 13:06:22.833271 15212 net.cpp:100] Creating Layer scale2b_branch2b
I0617 13:06:22.833293 15212 net.cpp:444] scale2b_branch2b <- res2b_branch2b
I0617 13:06:22.833317 15212 net.cpp:405] scale2b_branch2b -> res2b_branch2b (in-place)
I0617 13:06:22.833379 15212 layer_factory.hpp:77] Creating layer scale2b_branch2b
I0617 13:06:22.833515 15212 net.cpp:150] Setting up scale2b_branch2b
I0617 13:06:22.833545 15212 net.cpp:157] Top shape: 1 64 56 56 (200704)
I0617 13:06:22.833566 15212 net.cpp:165] Memory required for data: 60010636
I0617 13:06:22.833585 15212 layer_factory.hpp:77] Creating layer res2b_branch2b_relu
I0617 13:06:22.833611 15212 net.cpp:100] Creating Layer res2b_branch2b_relu
I0617 13:06:22.833632 15212 net.cpp:444] res2b_branch2b_relu <- res2b_branch2b
I0617 13:06:22.833688 15212 net.cpp:405] res2b_branch2b_relu -> res2b_branch2b (in-place)
I0617 13:06:22.833712 15212 net.cpp:150] Setting up res2b_branch2b_relu
I0617 13:06:22.833735 15212 net.cpp:157] Top shape: 1 64 56 56 (200704)
I0617 13:06:22.833748 15212 net.cpp:165] Memory required for data: 60813452
I0617 13:06:22.833770 15212 layer_factory.hpp:77] Creating layer res2b_branch2c
I0617 13:06:22.833804 15212 net.cpp:100] Creating Layer res2b_branch2c
I0617 13:06:22.833827 15212 net.cpp:444] res2b_branch2c <- res2b_branch2b
I0617 13:06:22.833851 15212 net.cpp:418] res2b_branch2c -> res2b_branch2c
I0617 13:06:22.834053 15212 net.cpp:150] Setting up res2b_branch2c
I0617 13:06:22.834084 15212 net.cpp:157] Top shape: 1 256 56 56 (802816)
I0617 13:06:22.834106 15212 net.cpp:165] Memory required for data: 64024716
I0617 13:06:22.834131 15212 layer_factory.hpp:77] Creating layer bn2b_branch2c
I0617 13:06:22.834154 15212 net.cpp:100] Creating Layer bn2b_branch2c
I0617 13:06:22.834168 15212 net.cpp:444] bn2b_branch2c <- res2b_branch2c
I0617 13:06:22.834190 15212 net.cpp:405] bn2b_branch2c -> res2b_branch2c (in-place)
I0617 13:06:22.834385 15212 net.cpp:150] Setting up bn2b_branch2c
I0617 13:06:22.834414 15212 net.cpp:157] Top shape: 1 256 56 56 (802816)
I0617 13:06:22.834435 15212 net.cpp:165] Memory required for data: 67235980
I0617 13:06:22.834463 15212 layer_factory.hpp:77] Creating layer scale2b_branch2c
I0617 13:06:22.834488 15212 net.cpp:100] Creating Layer scale2b_branch2c
I0617 13:06:22.834511 15212 net.cpp:444] scale2b_branch2c <- res2b_branch2c
I0617 13:06:22.834534 15212 net.cpp:405] scale2b_branch2c -> res2b_branch2c (in-place)
I0617 13:06:22.834594 15212 layer_factory.hpp:77] Creating layer scale2b_branch2c
I0617 13:06:22.834725 15212 net.cpp:150] Setting up scale2b_branch2c
I0617 13:06:22.834755 15212 net.cpp:157] Top shape: 1 256 56 56 (802816)
I0617 13:06:22.834776 15212 net.cpp:165] Memory required for data: 70447244
I0617 13:06:22.834801 15212 layer_factory.hpp:77] Creating layer res2b
I0617 13:06:22.834825 15212 net.cpp:100] Creating Layer res2b
I0617 13:06:22.834846 15212 net.cpp:444] res2b <- res2a_res2a_relu_0_split_1
I0617 13:06:22.834868 15212 net.cpp:444] res2b <- res2b_branch2c
I0617 13:06:22.834893 15212 net.cpp:418] res2b -> res2b
I0617 13:06:22.834938 15212 net.cpp:150] Setting up res2b
I0617 13:06:22.834964 15212 net.cpp:157] Top shape: 1 256 56 56 (802816)
I0617 13:06:22.834985 15212 net.cpp:165] Memory required for data: 73658508
I0617 13:06:22.835006 15212 layer_factory.hpp:77] Creating layer res2b_relu
I0617 13:06:22.835031 15212 net.cpp:100] Creating Layer res2b_relu
I0617 13:06:22.835052 15212 net.cpp:444] res2b_relu <- res2b
I0617 13:06:22.835075 15212 net.cpp:405] res2b_relu -> res2b (in-place)
I0617 13:06:22.835099 15212 net.cpp:150] Setting up res2b_relu
I0617 13:06:22.835122 15212 net.cpp:157] Top shape: 1 256 56 56 (802816)
I0617 13:06:22.835142 15212 net.cpp:165] Memory required for data: 76869772
I0617 13:06:22.835163 15212 layer_factory.hpp:77] Creating layer res2b_res2b_relu_0_split
I0617 13:06:22.835186 15212 net.cpp:100] Creating Layer res2b_res2b_relu_0_split
I0617 13:06:22.835206 15212 net.cpp:444] res2b_res2b_relu_0_split <- res2b
I0617 13:06:22.835229 15212 net.cpp:418] res2b_res2b_relu_0_split -> res2b_res2b_relu_0_split_0
I0617 13:06:22.835254 15212 net.cpp:418] res2b_res2b_relu_0_split -> res2b_res2b_relu_0_split_1
I0617 13:06:22.835307 15212 net.cpp:150] Setting up res2b_res2b_relu_0_split
I0617 13:06:22.835335 15212 net.cpp:157] Top shape: 1 256 56 56 (802816)
I0617 13:06:22.835357 15212 net.cpp:157] Top shape: 1 256 56 56 (802816)
I0617 13:06:22.835377 15212 net.cpp:165] Memory required for data: 83292300
I0617 13:06:22.835398 15212 layer_factory.hpp:77] Creating layer res2c_branch2a
I0617 13:06:22.835425 15212 net.cpp:100] Creating Layer res2c_branch2a
I0617 13:06:22.835448 15212 net.cpp:444] res2c_branch2a <- res2b_res2b_relu_0_split_0
I0617 13:06:22.835471 15212 net.cpp:418] res2c_branch2a -> res2c_branch2a
I0617 13:06:22.835669 15212 net.cpp:150] Setting up res2c_branch2a
I0617 13:06:22.835698 15212 net.cpp:157] Top shape: 1 64 56 56 (200704)
I0617 13:06:22.835719 15212 net.cpp:165] Memory required for data: 84095116
I0617 13:06:22.835742 15212 layer_factory.hpp:77] Creating layer bn2c_branch2a
I0617 13:06:22.835772 15212 net.cpp:100] Creating Layer bn2c_branch2a
I0617 13:06:22.835794 15212 net.cpp:444] bn2c_branch2a <- res2c_branch2a
I0617 13:06:22.835824 15212 net.cpp:405] bn2c_branch2a -> res2c_branch2a (in-place)
I0617 13:06:22.836026 15212 net.cpp:150] Setting up bn2c_branch2a
I0617 13:06:22.836055 15212 net.cpp:157] Top shape: 1 64 56 56 (200704)
I0617 13:06:22.836076 15212 net.cpp:165] Memory required for data: 84897932
I0617 13:06:22.836102 15212 layer_factory.hpp:77] Creating layer scale2c_branch2a
I0617 13:06:22.836127 15212 net.cpp:100] Creating Layer scale2c_branch2a
I0617 13:06:22.836148 15212 net.cpp:444] scale2c_branch2a <- res2c_branch2a
I0617 13:06:22.836171 15212 net.cpp:405] scale2c_branch2a -> res2c_branch2a (in-place)
I0617 13:06:22.836235 15212 layer_factory.hpp:77] Creating layer scale2c_branch2a
I0617 13:06:22.836372 15212 net.cpp:150] Setting up scale2c_branch2a
I0617 13:06:22.836403 15212 net.cpp:157] Top shape: 1 64 56 56 (200704)
I0617 13:06:22.836424 15212 net.cpp:165] Memory required for data: 85700748
I0617 13:06:22.836448 15212 layer_factory.hpp:77] Creating layer res2c_branch2a_relu
I0617 13:06:22.836472 15212 net.cpp:100] Creating Layer res2c_branch2a_relu
I0617 13:06:22.836493 15212 net.cpp:444] res2c_branch2a_relu <- res2c_branch2a
I0617 13:06:22.836516 15212 net.cpp:405] res2c_branch2a_relu -> res2c_branch2a (in-place)
I0617 13:06:22.836539 15212 net.cpp:150] Setting up res2c_branch2a_relu
I0617 13:06:22.836563 15212 net.cpp:157] Top shape: 1 64 56 56 (200704)
I0617 13:06:22.836583 15212 net.cpp:165] Memory required for data: 86503564
I0617 13:06:22.836604 15212 layer_factory.hpp:77] Creating layer res2c_branch2b
I0617 13:06:22.836632 15212 net.cpp:100] Creating Layer res2c_branch2b
I0617 13:06:22.836654 15212 net.cpp:444] res2c_branch2b <- res2c_branch2a
I0617 13:06:22.836676 15212 net.cpp:418] res2c_branch2b -> res2c_branch2b
I0617 13:06:22.836889 15212 net.cpp:150] Setting up res2c_branch2b
I0617 13:06:22.836920 15212 net.cpp:157] Top shape: 1 64 56 56 (200704)
I0617 13:06:22.836941 15212 net.cpp:165] Memory required for data: 87306380
I0617 13:06:22.836962 15212 layer_factory.hpp:77] Creating layer bn2c_branch2b
I0617 13:06:22.836987 15212 net.cpp:100] Creating Layer bn2c_branch2b
I0617 13:06:22.837007 15212 net.cpp:444] bn2c_branch2b <- res2c_branch2b
I0617 13:06:22.837030 15212 net.cpp:405] bn2c_branch2b -> res2c_branch2b (in-place)
I0617 13:06:22.837230 15212 net.cpp:150] Setting up bn2c_branch2b
I0617 13:06:22.837258 15212 net.cpp:157] Top shape: 1 64 56 56 (200704)
I0617 13:06:22.837280 15212 net.cpp:165] Memory required for data: 88109196
I0617 13:06:22.837306 15212 layer_factory.hpp:77] Creating layer scale2c_branch2b
I0617 13:06:22.837329 15212 net.cpp:100] Creating Layer scale2c_branch2b
I0617 13:06:22.837350 15212 net.cpp:444] scale2c_branch2b <- res2c_branch2b
I0617 13:06:22.837373 15212 net.cpp:405] scale2c_branch2b -> res2c_branch2b (in-place)
I0617 13:06:22.837435 15212 layer_factory.hpp:77] Creating layer scale2c_branch2b
I0617 13:06:22.837574 15212 net.cpp:150] Setting up scale2c_branch2b
I0617 13:06:22.837604 15212 net.cpp:157] Top shape: 1 64 56 56 (200704)
I0617 13:06:22.837625 15212 net.cpp:165] Memory required for data: 88912012
I0617 13:06:22.837688 15212 layer_factory.hpp:77] Creating layer res2c_branch2b_relu
I0617 13:06:22.837714 15212 net.cpp:100] Creating Layer res2c_branch2b_relu
I0617 13:06:22.837735 15212 net.cpp:444] res2c_branch2b_relu <- res2c_branch2b
I0617 13:06:22.837759 15212 net.cpp:405] res2c_branch2b_relu -> res2c_branch2b (in-place)
I0617 13:06:22.837783 15212 net.cpp:150] Setting up res2c_branch2b_relu
I0617 13:06:22.837807 15212 net.cpp:157] Top shape: 1 64 56 56 (200704)
I0617 13:06:22.837826 15212 net.cpp:165] Memory required for data: 89714828
I0617 13:06:22.837848 15212 layer_factory.hpp:77] Creating layer res2c_branch2c
I0617 13:06:22.837874 15212 net.cpp:100] Creating Layer res2c_branch2c
I0617 13:06:22.837898 15212 net.cpp:444] res2c_branch2c <- res2c_branch2b
I0617 13:06:22.837923 15212 net.cpp:418] res2c_branch2c -> res2c_branch2c
I0617 13:06:22.838129 15212 net.cpp:150] Setting up res2c_branch2c
I0617 13:06:22.838160 15212 net.cpp:157] Top shape: 1 256 56 56 (802816)
I0617 13:06:22.838191 15212 net.cpp:165] Memory required for data: 92926092
I0617 13:06:22.838217 15212 layer_factory.hpp:77] Creating layer bn2c_branch2c
I0617 13:06:22.838241 15212 net.cpp:100] Creating Layer bn2c_branch2c
I0617 13:06:22.838264 15212 net.cpp:444] bn2c_branch2c <- res2c_branch2c
I0617 13:06:22.838286 15212 net.cpp:405] bn2c_branch2c -> res2c_branch2c (in-place)
I0617 13:06:22.838482 15212 net.cpp:150] Setting up bn2c_branch2c
I0617 13:06:22.838510 15212 net.cpp:157] Top shape: 1 256 56 56 (802816)
I0617 13:06:22.838531 15212 net.cpp:165] Memory required for data: 96137356
I0617 13:06:22.838564 15212 layer_factory.hpp:77] Creating layer scale2c_branch2c
I0617 13:06:22.838590 15212 net.cpp:100] Creating Layer scale2c_branch2c
I0617 13:06:22.838614 15212 net.cpp:444] scale2c_branch2c <- res2c_branch2c
I0617 13:06:22.838639 15212 net.cpp:405] scale2c_branch2c -> res2c_branch2c (in-place)
I0617 13:06:22.838697 15212 layer_factory.hpp:77] Creating layer scale2c_branch2c
I0617 13:06:22.838832 15212 net.cpp:150] Setting up scale2c_branch2c
I0617 13:06:22.838861 15212 net.cpp:157] Top shape: 1 256 56 56 (802816)
I0617 13:06:22.838882 15212 net.cpp:165] Memory required for data: 99348620
I0617 13:06:22.838908 15212 layer_factory.hpp:77] Creating layer res2c
I0617 13:06:22.838933 15212 net.cpp:100] Creating Layer res2c
I0617 13:06:22.838955 15212 net.cpp:444] res2c <- res2b_res2b_relu_0_split_1
I0617 13:06:22.838979 15212 net.cpp:444] res2c <- res2c_branch2c
I0617 13:06:22.839001 15212 net.cpp:418] res2c -> res2c
I0617 13:06:22.839040 15212 net.cpp:150] Setting up res2c
I0617 13:06:22.839067 15212 net.cpp:157] Top shape: 1 256 56 56 (802816)
I0617 13:06:22.839088 15212 net.cpp:165] Memory required for data: 102559884
I0617 13:06:22.839109 15212 layer_factory.hpp:77] Creating layer res2c_relu
I0617 13:06:22.839133 15212 net.cpp:100] Creating Layer res2c_relu
I0617 13:06:22.839154 15212 net.cpp:444] res2c_relu <- res2c
I0617 13:06:22.839179 15212 net.cpp:405] res2c_relu -> res2c (in-place)
I0617 13:06:22.839205 15212 net.cpp:150] Setting up res2c_relu
I0617 13:06:22.839228 15212 net.cpp:157] Top shape: 1 256 56 56 (802816)
I0617 13:06:22.839249 15212 net.cpp:165] Memory required for data: 105771148
I0617 13:06:22.839270 15212 layer_factory.hpp:77] Creating layer res2c_res2c_relu_0_split
I0617 13:06:22.839298 15212 net.cpp:100] Creating Layer res2c_res2c_relu_0_split
I0617 13:06:22.839319 15212 net.cpp:444] res2c_res2c_relu_0_split <- res2c
I0617 13:06:22.839342 15212 net.cpp:418] res2c_res2c_relu_0_split -> res2c_res2c_relu_0_split_0
I0617 13:06:22.839367 15212 net.cpp:418] res2c_res2c_relu_0_split -> res2c_res2c_relu_0_split_1
I0617 13:06:22.839423 15212 net.cpp:150] Setting up res2c_res2c_relu_0_split
I0617 13:06:22.839450 15212 net.cpp:157] Top shape: 1 256 56 56 (802816)
I0617 13:06:22.839473 15212 net.cpp:157] Top shape: 1 256 56 56 (802816)
I0617 13:06:22.839485 15212 net.cpp:165] Memory required for data: 112193676
I0617 13:06:22.839507 15212 layer_factory.hpp:77] Creating layer res3a_branch1
I0617 13:06:22.839532 15212 net.cpp:100] Creating Layer res3a_branch1
I0617 13:06:22.839555 15212 net.cpp:444] res3a_branch1 <- res2c_res2c_relu_0_split_0
I0617 13:06:22.839581 15212 net.cpp:418] res3a_branch1 -> res3a_branch1
I0617 13:06:22.840409 15212 net.cpp:150] Setting up res3a_branch1
I0617 13:06:22.840447 15212 net.cpp:157] Top shape: 1 512 28 28 (401408)
I0617 13:06:22.840471 15212 net.cpp:165] Memory required for data: 113799308
I0617 13:06:22.840494 15212 layer_factory.hpp:77] Creating layer bn3a_branch1
I0617 13:06:22.840519 15212 net.cpp:100] Creating Layer bn3a_branch1
I0617 13:06:22.840538 15212 net.cpp:444] bn3a_branch1 <- res3a_branch1
I0617 13:06:22.840565 15212 net.cpp:405] bn3a_branch1 -> res3a_branch1 (in-place)
I0617 13:06:22.841295 15212 net.cpp:150] Setting up bn3a_branch1
I0617 13:06:22.841331 15212 net.cpp:157] Top shape: 1 512 28 28 (401408)
I0617 13:06:22.841352 15212 net.cpp:165] Memory required for data: 115404940
I0617 13:06:22.841379 15212 layer_factory.hpp:77] Creating layer scale3a_branch1
I0617 13:06:22.841413 15212 net.cpp:100] Creating Layer scale3a_branch1
I0617 13:06:22.841437 15212 net.cpp:444] scale3a_branch1 <- res3a_branch1
I0617 13:06:22.841461 15212 net.cpp:405] scale3a_branch1 -> res3a_branch1 (in-place)
I0617 13:06:22.841526 15212 layer_factory.hpp:77] Creating layer scale3a_branch1
I0617 13:06:22.841716 15212 net.cpp:150] Setting up scale3a_branch1
I0617 13:06:22.841754 15212 net.cpp:157] Top shape: 1 512 28 28 (401408)
I0617 13:06:22.841776 15212 net.cpp:165] Memory required for data: 117010572
I0617 13:06:22.841802 15212 layer_factory.hpp:77] Creating layer res3a_branch2a
I0617 13:06:22.841830 15212 net.cpp:100] Creating Layer res3a_branch2a
I0617 13:06:22.841852 15212 net.cpp:444] res3a_branch2a <- res2c_res2c_relu_0_split_1
I0617 13:06:22.841878 15212 net.cpp:418] res3a_branch2a -> res3a_branch2a
I0617 13:06:22.842094 15212 net.cpp:150] Setting up res3a_branch2a
I0617 13:06:22.842125 15212 net.cpp:157] Top shape: 1 128 28 28 (100352)
I0617 13:06:22.842146 15212 net.cpp:165] Memory required for data: 117411980
I0617 13:06:22.842170 15212 layer_factory.hpp:77] Creating layer bn3a_branch2a
I0617 13:06:22.842193 15212 net.cpp:100] Creating Layer bn3a_branch2a
I0617 13:06:22.842216 15212 net.cpp:444] bn3a_branch2a <- res3a_branch2a
I0617 13:06:22.842241 15212 net.cpp:405] bn3a_branch2a -> res3a_branch2a (in-place)
I0617 13:06:22.842439 15212 net.cpp:150] Setting up bn3a_branch2a
I0617 13:06:22.842468 15212 net.cpp:157] Top shape: 1 128 28 28 (100352)
I0617 13:06:22.842490 15212 net.cpp:165] Memory required for data: 117813388
I0617 13:06:22.842515 15212 layer_factory.hpp:77] Creating layer scale3a_branch2a
I0617 13:06:22.842540 15212 net.cpp:100] Creating Layer scale3a_branch2a
I0617 13:06:22.842561 15212 net.cpp:444] scale3a_branch2a <- res3a_branch2a
I0617 13:06:22.842583 15212 net.cpp:405] scale3a_branch2a -> res3a_branch2a (in-place)
I0617 13:06:22.842643 15212 layer_factory.hpp:77] Creating layer scale3a_branch2a
I0617 13:06:22.842772 15212 net.cpp:150] Setting up scale3a_branch2a
I0617 13:06:22.842803 15212 net.cpp:157] Top shape: 1 128 28 28 (100352)
I0617 13:06:22.842823 15212 net.cpp:165] Memory required for data: 118214796
I0617 13:06:22.842849 15212 layer_factory.hpp:77] Creating layer res3a_branch2a_relu
I0617 13:06:22.842872 15212 net.cpp:100] Creating Layer res3a_branch2a_relu
I0617 13:06:22.842893 15212 net.cpp:444] res3a_branch2a_relu <- res3a_branch2a
I0617 13:06:22.842916 15212 net.cpp:405] res3a_branch2a_relu -> res3a_branch2a (in-place)
I0617 13:06:22.842942 15212 net.cpp:150] Setting up res3a_branch2a_relu
I0617 13:06:22.842967 15212 net.cpp:157] Top shape: 1 128 28 28 (100352)
I0617 13:06:22.842986 15212 net.cpp:165] Memory required for data: 118616204
I0617 13:06:22.843008 15212 layer_factory.hpp:77] Creating layer res3a_branch2b
I0617 13:06:22.843030 15212 net.cpp:100] Creating Layer res3a_branch2b
I0617 13:06:22.843051 15212 net.cpp:444] res3a_branch2b <- res3a_branch2a
I0617 13:06:22.843077 15212 net.cpp:418] res3a_branch2b -> res3a_branch2b
I0617 13:06:22.843914 15212 net.cpp:150] Setting up res3a_branch2b
I0617 13:06:22.843950 15212 net.cpp:157] Top shape: 1 128 28 28 (100352)
I0617 13:06:22.843972 15212 net.cpp:165] Memory required for data: 119017612
I0617 13:06:22.843997 15212 layer_factory.hpp:77] Creating layer bn3a_branch2b
I0617 13:06:22.844022 15212 net.cpp:100] Creating Layer bn3a_branch2b
I0617 13:06:22.844043 15212 net.cpp:444] bn3a_branch2b <- res3a_branch2b
I0617 13:06:22.844069 15212 net.cpp:405] bn3a_branch2b -> res3a_branch2b (in-place)
I0617 13:06:22.844275 15212 net.cpp:150] Setting up bn3a_branch2b
I0617 13:06:22.844305 15212 net.cpp:157] Top shape: 1 128 28 28 (100352)
I0617 13:06:22.844326 15212 net.cpp:165] Memory required for data: 119419020
I0617 13:06:22.844346 15212 layer_factory.hpp:77] Creating layer scale3a_branch2b
I0617 13:06:22.844369 15212 net.cpp:100] Creating Layer scale3a_branch2b
I0617 13:06:22.844393 15212 net.cpp:444] scale3a_branch2b <- res3a_branch2b
I0617 13:06:22.844415 15212 net.cpp:405] scale3a_branch2b -> res3a_branch2b (in-place)
I0617 13:06:22.844485 15212 layer_factory.hpp:77] Creating layer scale3a_branch2b
I0617 13:06:22.844619 15212 net.cpp:150] Setting up scale3a_branch2b
I0617 13:06:22.844647 15212 net.cpp:157] Top shape: 1 128 28 28 (100352)
I0617 13:06:22.844668 15212 net.cpp:165] Memory required for data: 119820428
I0617 13:06:22.844694 15212 layer_factory.hpp:77] Creating layer res3a_branch2b_relu
I0617 13:06:22.844719 15212 net.cpp:100] Creating Layer res3a_branch2b_relu
I0617 13:06:22.844743 15212 net.cpp:444] res3a_branch2b_relu <- res3a_branch2b
I0617 13:06:22.844764 15212 net.cpp:405] res3a_branch2b_relu -> res3a_branch2b (in-place)
I0617 13:06:22.844789 15212 net.cpp:150] Setting up res3a_branch2b_relu
I0617 13:06:22.844813 15212 net.cpp:157] Top shape: 1 128 28 28 (100352)
I0617 13:06:22.844835 15212 net.cpp:165] Memory required for data: 120221836
I0617 13:06:22.844856 15212 layer_factory.hpp:77] Creating layer res3a_branch2c
I0617 13:06:22.844885 15212 net.cpp:100] Creating Layer res3a_branch2c
I0617 13:06:22.844907 15212 net.cpp:444] res3a_branch2c <- res3a_branch2b
I0617 13:06:22.844931 15212 net.cpp:418] res3a_branch2c -> res3a_branch2c
I0617 13:06:22.845187 15212 net.cpp:150] Setting up res3a_branch2c
I0617 13:06:22.845209 15212 net.cpp:157] Top shape: 1 512 28 28 (401408)
I0617 13:06:22.845230 15212 net.cpp:165] Memory required for data: 121827468
I0617 13:06:22.845254 15212 layer_factory.hpp:77] Creating layer bn3a_branch2c
I0617 13:06:22.845279 15212 net.cpp:100] Creating Layer bn3a_branch2c
I0617 13:06:22.845302 15212 net.cpp:444] bn3a_branch2c <- res3a_branch2c
I0617 13:06:22.845327 15212 net.cpp:405] bn3a_branch2c -> res3a_branch2c (in-place)
I0617 13:06:22.845525 15212 net.cpp:150] Setting up bn3a_branch2c
I0617 13:06:22.845559 15212 net.cpp:157] Top shape: 1 512 28 28 (401408)
I0617 13:06:22.845580 15212 net.cpp:165] Memory required for data: 123433100
I0617 13:06:22.845607 15212 layer_factory.hpp:77] Creating layer scale3a_branch2c
I0617 13:06:22.845672 15212 net.cpp:100] Creating Layer scale3a_branch2c
I0617 13:06:22.845698 15212 net.cpp:444] scale3a_branch2c <- res3a_branch2c
I0617 13:06:22.845722 15212 net.cpp:405] scale3a_branch2c -> res3a_branch2c (in-place)
I0617 13:06:22.845790 15212 layer_factory.hpp:77] Creating layer scale3a_branch2c
I0617 13:06:22.845921 15212 net.cpp:150] Setting up scale3a_branch2c
I0617 13:06:22.845952 15212 net.cpp:157] Top shape: 1 512 28 28 (401408)
I0617 13:06:22.845973 15212 net.cpp:165] Memory required for data: 125038732
I0617 13:06:22.845996 15212 layer_factory.hpp:77] Creating layer res3a
I0617 13:06:22.846021 15212 net.cpp:100] Creating Layer res3a
I0617 13:06:22.846043 15212 net.cpp:444] res3a <- res3a_branch1
I0617 13:06:22.846066 15212 net.cpp:444] res3a <- res3a_branch2c
I0617 13:06:22.846089 15212 net.cpp:418] res3a -> res3a
I0617 13:06:22.846133 15212 net.cpp:150] Setting up res3a
I0617 13:06:22.846159 15212 net.cpp:157] Top shape: 1 512 28 28 (401408)
I0617 13:06:22.846181 15212 net.cpp:165] Memory required for data: 126644364
I0617 13:06:22.846202 15212 layer_factory.hpp:77] Creating layer res3a_relu
I0617 13:06:22.846227 15212 net.cpp:100] Creating Layer res3a_relu
I0617 13:06:22.846262 15212 net.cpp:444] res3a_relu <- res3a
I0617 13:06:22.846300 15212 net.cpp:405] res3a_relu -> res3a (in-place)
I0617 13:06:22.846351 15212 net.cpp:150] Setting up res3a_relu
I0617 13:06:22.846393 15212 net.cpp:157] Top shape: 1 512 28 28 (401408)
I0617 13:06:22.846432 15212 net.cpp:165] Memory required for data: 128249996
I0617 13:06:22.846464 15212 layer_factory.hpp:77] Creating layer res3a_res3a_relu_0_split
I0617 13:06:22.846499 15212 net.cpp:100] Creating Layer res3a_res3a_relu_0_split
I0617 13:06:22.846539 15212 net.cpp:444] res3a_res3a_relu_0_split <- res3a
I0617 13:06:22.846575 15212 net.cpp:418] res3a_res3a_relu_0_split -> res3a_res3a_relu_0_split_0
I0617 13:06:22.846619 15212 net.cpp:418] res3a_res3a_relu_0_split -> res3a_res3a_relu_0_split_1
I0617 13:06:22.846698 15212 net.cpp:150] Setting up res3a_res3a_relu_0_split
I0617 13:06:22.846792 15212 net.cpp:157] Top shape: 1 512 28 28 (401408)
I0617 13:06:22.846834 15212 net.cpp:157] Top shape: 1 512 28 28 (401408)
I0617 13:06:22.846868 15212 net.cpp:165] Memory required for data: 131461260
I0617 13:06:22.846909 15212 layer_factory.hpp:77] Creating layer res3b_branch2a
I0617 13:06:22.846948 15212 net.cpp:100] Creating Layer res3b_branch2a
I0617 13:06:22.846997 15212 net.cpp:444] res3b_branch2a <- res3a_res3a_relu_0_split_0
I0617 13:06:22.847033 15212 net.cpp:418] res3b_branch2a -> res3b_branch2a
I0617 13:06:22.847842 15212 net.cpp:150] Setting up res3b_branch2a
I0617 13:06:22.848668 15212 net.cpp:157] Top shape: 1 128 28 28 (100352)
I0617 13:06:22.848709 15212 net.cpp:165] Memory required for data: 131862668
I0617 13:06:22.848747 15212 layer_factory.hpp:77] Creating layer bn3b_branch2a
I0617 13:06:22.848793 15212 net.cpp:100] Creating Layer bn3b_branch2a
I0617 13:06:22.848839 15212 net.cpp:444] bn3b_branch2a <- res3b_branch2a
I0617 13:06:22.848876 15212 net.cpp:405] bn3b_branch2a -> res3b_branch2a (in-place)
I0617 13:06:22.849095 15212 net.cpp:150] Setting up bn3b_branch2a
I0617 13:06:22.849320 15212 net.cpp:157] Top shape: 1 128 28 28 (100352)
I0617 13:06:22.849361 15212 net.cpp:165] Memory required for data: 132264076
I0617 13:06:22.849407 15212 layer_factory.hpp:77] Creating layer scale3b_branch2a
I0617 13:06:22.849458 15212 net.cpp:100] Creating Layer scale3b_branch2a
I0617 13:06:22.849499 15212 net.cpp:444] scale3b_branch2a <- res3b_branch2a
I0617 13:06:22.849537 15212 net.cpp:405] scale3b_branch2a -> res3b_branch2a (in-place)
I0617 13:06:22.849622 15212 layer_factory.hpp:77] Creating layer scale3b_branch2a
I0617 13:06:22.849866 15212 net.cpp:150] Setting up scale3b_branch2a
I0617 13:06:22.850028 15212 net.cpp:157] Top shape: 1 128 28 28 (100352)
I0617 13:06:22.850069 15212 net.cpp:165] Memory required for data: 132665484
I0617 13:06:22.850101 15212 layer_factory.hpp:77] Creating layer res3b_branch2a_relu
I0617 13:06:22.850143 15212 net.cpp:100] Creating Layer res3b_branch2a_relu
I0617 13:06:22.850178 15212 net.cpp:444] res3b_branch2a_relu <- res3b_branch2a
I0617 13:06:22.850219 15212 net.cpp:405] res3b_branch2a_relu -> res3b_branch2a (in-place)
I0617 13:06:22.850262 15212 net.cpp:150] Setting up res3b_branch2a_relu
I0617 13:06:22.850304 15212 net.cpp:157] Top shape: 1 128 28 28 (100352)
I0617 13:06:22.850338 15212 net.cpp:165] Memory required for data: 133066892
I0617 13:06:22.850379 15212 layer_factory.hpp:77] Creating layer res3b_branch2b
I0617 13:06:22.850425 15212 net.cpp:100] Creating Layer res3b_branch2b
I0617 13:06:22.850466 15212 net.cpp:444] res3b_branch2b <- res3b_branch2a
I0617 13:06:22.850510 15212 net.cpp:418] res3b_branch2b -> res3b_branch2b
I0617 13:06:22.851366 15212 net.cpp:150] Setting up res3b_branch2b
I0617 13:06:22.852231 15212 net.cpp:157] Top shape: 1 128 28 28 (100352)
I0617 13:06:22.852272 15212 net.cpp:165] Memory required for data: 133468300
I0617 13:06:22.852313 15212 layer_factory.hpp:77] Creating layer bn3b_branch2b
I0617 13:06:22.852360 15212 net.cpp:100] Creating Layer bn3b_branch2b
I0617 13:06:22.852403 15212 net.cpp:444] bn3b_branch2b <- res3b_branch2b
I0617 13:06:22.852447 15212 net.cpp:405] bn3b_branch2b -> res3b_branch2b (in-place)
I0617 13:06:22.852669 15212 net.cpp:150] Setting up bn3b_branch2b
I0617 13:06:22.852897 15212 net.cpp:157] Top shape: 1 128 28 28 (100352)
I0617 13:06:22.852937 15212 net.cpp:165] Memory required for data: 133869708
I0617 13:06:22.852984 15212 layer_factory.hpp:77] Creating layer scale3b_branch2b
I0617 13:06:22.853031 15212 net.cpp:100] Creating Layer scale3b_branch2b
I0617 13:06:22.853080 15212 net.cpp:444] scale3b_branch2b <- res3b_branch2b
I0617 13:06:22.853116 15212 net.cpp:405] scale3b_branch2b -> res3b_branch2b (in-place)
I0617 13:06:22.853197 15212 layer_factory.hpp:77] Creating layer scale3b_branch2b
I0617 13:06:22.853392 15212 net.cpp:150] Setting up scale3b_branch2b
I0617 13:06:22.853548 15212 net.cpp:157] Top shape: 1 128 28 28 (100352)
I0617 13:06:22.853588 15212 net.cpp:165] Memory required for data: 134271116
I0617 13:06:22.853682 15212 layer_factory.hpp:77] Creating layer res3b_branch2b_relu
I0617 13:06:22.853794 15212 net.cpp:100] Creating Layer res3b_branch2b_relu
I0617 13:06:22.853837 15212 net.cpp:444] res3b_branch2b_relu <- res3b_branch2b
I0617 13:06:22.853874 15212 net.cpp:405] res3b_branch2b_relu -> res3b_branch2b (in-place)
I0617 13:06:22.853911 15212 net.cpp:150] Setting up res3b_branch2b_relu
I0617 13:06:22.853948 15212 net.cpp:157] Top shape: 1 128 28 28 (100352)
I0617 13:06:22.853987 15212 net.cpp:165] Memory required for data: 134672524
I0617 13:06:22.854022 15212 layer_factory.hpp:77] Creating layer res3b_branch2c
I0617 13:06:22.854068 15212 net.cpp:100] Creating Layer res3b_branch2c
I0617 13:06:22.854115 15212 net.cpp:444] res3b_branch2c <- res3b_branch2b
I0617 13:06:22.854152 15212 net.cpp:418] res3b_branch2c -> res3b_branch2c
I0617 13:06:22.854419 15212 net.cpp:150] Setting up res3b_branch2c
I0617 13:06:22.854698 15212 net.cpp:157] Top shape: 1 512 28 28 (401408)
I0617 13:06:22.854739 15212 net.cpp:165] Memory required for data: 136278156
I0617 13:06:22.854776 15212 layer_factory.hpp:77] Creating layer bn3b_branch2c
I0617 13:06:22.854820 15212 net.cpp:100] Creating Layer bn3b_branch2c
I0617 13:06:22.854861 15212 net.cpp:444] bn3b_branch2c <- res3b_branch2c
I0617 13:06:22.854904 15212 net.cpp:405] bn3b_branch2c -> res3b_branch2c (in-place)
I0617 13:06:22.855124 15212 net.cpp:150] Setting up bn3b_branch2c
I0617 13:06:22.855350 15212 net.cpp:157] Top shape: 1 512 28 28 (401408)
I0617 13:06:22.855391 15212 net.cpp:165] Memory required for data: 137883788
I0617 13:06:22.855428 15212 layer_factory.hpp:77] Creating layer scale3b_branch2c
I0617 13:06:22.855466 15212 net.cpp:100] Creating Layer scale3b_branch2c
I0617 13:06:22.855507 15212 net.cpp:444] scale3b_branch2c <- res3b_branch2c
I0617 13:06:22.855551 15212 net.cpp:405] scale3b_branch2c -> res3b_branch2c (in-place)
I0617 13:06:22.855633 15212 layer_factory.hpp:77] Creating layer scale3b_branch2c
I0617 13:06:22.855825 15212 net.cpp:150] Setting up scale3b_branch2c
I0617 13:06:22.855979 15212 net.cpp:157] Top shape: 1 512 28 28 (401408)
I0617 13:06:22.856014 15212 net.cpp:165] Memory required for data: 139489420
I0617 13:06:22.856057 15212 layer_factory.hpp:77] Creating layer res3b
I0617 13:06:22.856099 15212 net.cpp:100] Creating Layer res3b
I0617 13:06:22.856142 15212 net.cpp:444] res3b <- res3a_res3a_relu_0_split_1
I0617 13:06:22.856182 15212 net.cpp:444] res3b <- res3b_branch2c
I0617 13:06:22.856218 15212 net.cpp:418] res3b -> res3b
I0617 13:06:22.856281 15212 net.cpp:150] Setting up res3b
I0617 13:06:22.856349 15212 net.cpp:157] Top shape: 1 512 28 28 (401408)
I0617 13:06:22.856389 15212 net.cpp:165] Memory required for data: 141095052
I0617 13:06:22.856422 15212 layer_factory.hpp:77] Creating layer res3b_relu
I0617 13:06:22.856461 15212 net.cpp:100] Creating Layer res3b_relu
I0617 13:06:22.856499 15212 net.cpp:444] res3b_relu <- res3b
I0617 13:06:22.856530 15212 net.cpp:405] res3b_relu -> res3b (in-place)
I0617 13:06:22.856573 15212 net.cpp:150] Setting up res3b_relu
I0617 13:06:22.856616 15212 net.cpp:157] Top shape: 1 512 28 28 (401408)
I0617 13:06:22.856654 15212 net.cpp:165] Memory required for data: 142700684
I0617 13:06:22.856688 15212 layer_factory.hpp:77] Creating layer res3b_res3b_relu_0_split
I0617 13:06:22.856729 15212 net.cpp:100] Creating Layer res3b_res3b_relu_0_split
I0617 13:06:22.856763 15212 net.cpp:444] res3b_res3b_relu_0_split <- res3b
I0617 13:06:22.856806 15212 net.cpp:418] res3b_res3b_relu_0_split -> res3b_res3b_relu_0_split_0
I0617 13:06:22.856849 15212 net.cpp:418] res3b_res3b_relu_0_split -> res3b_res3b_relu_0_split_1
I0617 13:06:22.856926 15212 net.cpp:150] Setting up res3b_res3b_relu_0_split
I0617 13:06:22.857007 15212 net.cpp:157] Top shape: 1 512 28 28 (401408)
I0617 13:06:22.857044 15212 net.cpp:157] Top shape: 1 512 28 28 (401408)
I0617 13:06:22.857084 15212 net.cpp:165] Memory required for data: 145911948
I0617 13:06:22.857125 15212 layer_factory.hpp:77] Creating layer res3c_branch2a
I0617 13:06:22.857163 15212 net.cpp:100] Creating Layer res3c_branch2a
I0617 13:06:22.857223 15212 net.cpp:444] res3c_branch2a <- res3b_res3b_relu_0_split_0
I0617 13:06:22.857260 15212 net.cpp:418] res3c_branch2a -> res3c_branch2a
I0617 13:06:22.857532 15212 net.cpp:150] Setting up res3c_branch2a
I0617 13:06:22.857806 15212 net.cpp:157] Top shape: 1 128 28 28 (100352)
I0617 13:06:22.857856 15212 net.cpp:165] Memory required for data: 146313356
I0617 13:06:22.857893 15212 layer_factory.hpp:77] Creating layer bn3c_branch2a
I0617 13:06:22.857938 15212 net.cpp:100] Creating Layer bn3c_branch2a
I0617 13:06:22.857977 15212 net.cpp:444] bn3c_branch2a <- res3c_branch2a
I0617 13:06:22.858021 15212 net.cpp:405] bn3c_branch2a -> res3c_branch2a (in-place)
I0617 13:06:22.858243 15212 net.cpp:150] Setting up bn3c_branch2a
I0617 13:06:22.858475 15212 net.cpp:157] Top shape: 1 128 28 28 (100352)
I0617 13:06:22.858516 15212 net.cpp:165] Memory required for data: 146714764
I0617 13:06:22.858562 15212 layer_factory.hpp:77] Creating layer scale3c_branch2a
I0617 13:06:22.858609 15212 net.cpp:100] Creating Layer scale3c_branch2a
I0617 13:06:22.858656 15212 net.cpp:444] scale3c_branch2a <- res3c_branch2a
I0617 13:06:22.858693 15212 net.cpp:405] scale3c_branch2a -> res3c_branch2a (in-place)
I0617 13:06:22.858773 15212 layer_factory.hpp:77] Creating layer scale3c_branch2a
I0617 13:06:22.858964 15212 net.cpp:150] Setting up scale3c_branch2a
I0617 13:06:22.859128 15212 net.cpp:157] Top shape: 1 128 28 28 (100352)
I0617 13:06:22.859169 15212 net.cpp:165] Memory required for data: 147116172
I0617 13:06:22.859206 15212 layer_factory.hpp:77] Creating layer res3c_branch2a_relu
I0617 13:06:22.859261 15212 net.cpp:100] Creating Layer res3c_branch2a_relu
I0617 13:06:22.859303 15212 net.cpp:444] res3c_branch2a_relu <- res3c_branch2a
I0617 13:06:22.859345 15212 net.cpp:405] res3c_branch2a_relu -> res3c_branch2a (in-place)
I0617 13:06:22.859388 15212 net.cpp:150] Setting up res3c_branch2a_relu
I0617 13:06:22.859431 15212 net.cpp:157] Top shape: 1 128 28 28 (100352)
I0617 13:06:22.859470 15212 net.cpp:165] Memory required for data: 147517580
I0617 13:06:22.859504 15212 layer_factory.hpp:77] Creating layer res3c_branch2b
I0617 13:06:22.859549 15212 net.cpp:100] Creating Layer res3c_branch2b
I0617 13:06:22.859591 15212 net.cpp:444] res3c_branch2b <- res3c_branch2a
I0617 13:06:22.859633 15212 net.cpp:418] res3c_branch2b -> res3c_branch2b
I0617 13:06:22.860494 15212 net.cpp:150] Setting up res3c_branch2b
I0617 13:06:22.861368 15212 net.cpp:157] Top shape: 1 128 28 28 (100352)
I0617 13:06:22.861408 15212 net.cpp:165] Memory required for data: 147918988
I0617 13:06:22.861445 15212 layer_factory.hpp:77] Creating layer bn3c_branch2b
I0617 13:06:22.861488 15212 net.cpp:100] Creating Layer bn3c_branch2b
I0617 13:06:22.861529 15212 net.cpp:444] bn3c_branch2b <- res3c_branch2b
I0617 13:06:22.861572 15212 net.cpp:405] bn3c_branch2b -> res3c_branch2b (in-place)
I0617 13:06:22.861835 15212 net.cpp:150] Setting up bn3c_branch2b
I0617 13:06:22.862109 15212 net.cpp:157] Top shape: 1 128 28 28 (100352)
I0617 13:06:22.862150 15212 net.cpp:165] Memory required for data: 148320396
I0617 13:06:22.862195 15212 layer_factory.hpp:77] Creating layer scale3c_branch2b
I0617 13:06:22.862239 15212 net.cpp:100] Creating Layer scale3c_branch2b
I0617 13:06:22.862280 15212 net.cpp:444] scale3c_branch2b <- res3c_branch2b
I0617 13:06:22.862323 15212 net.cpp:405] scale3c_branch2b -> res3c_branch2b (in-place)
I0617 13:06:22.862397 15212 layer_factory.hpp:77] Creating layer scale3c_branch2b
I0617 13:06:22.862582 15212 net.cpp:150] Setting up scale3c_branch2b
I0617 13:06:22.862743 15212 net.cpp:157] Top shape: 1 128 28 28 (100352)
I0617 13:06:22.862783 15212 net.cpp:165] Memory required for data: 148721804
I0617 13:06:22.862828 15212 layer_factory.hpp:77] Creating layer res3c_branch2b_relu
I0617 13:06:22.862865 15212 net.cpp:100] Creating Layer res3c_branch2b_relu
I0617 13:06:22.862900 15212 net.cpp:444] res3c_branch2b_relu <- res3c_branch2b
I0617 13:06:22.862938 15212 net.cpp:405] res3c_branch2b_relu -> res3c_branch2b (in-place)
I0617 13:06:22.862995 15212 net.cpp:150] Setting up res3c_branch2b_relu
I0617 13:06:22.863039 15212 net.cpp:157] Top shape: 1 128 28 28 (100352)
I0617 13:06:22.863080 15212 net.cpp:165] Memory required for data: 149123212
I0617 13:06:22.863113 15212 layer_factory.hpp:77] Creating layer res3c_branch2c
I0617 13:06:22.863158 15212 net.cpp:100] Creating Layer res3c_branch2c
I0617 13:06:22.863199 15212 net.cpp:444] res3c_branch2c <- res3c_branch2b
I0617 13:06:22.863240 15212 net.cpp:418] res3c_branch2c -> res3c_branch2c
I0617 13:06:22.863513 15212 net.cpp:150] Setting up res3c_branch2c
I0617 13:06:22.863787 15212 net.cpp:157] Top shape: 1 512 28 28 (401408)
I0617 13:06:22.863828 15212 net.cpp:165] Memory required for data: 150728844
I0617 13:06:22.863870 15212 layer_factory.hpp:77] Creating layer bn3c_branch2c
I0617 13:06:22.863916 15212 net.cpp:100] Creating Layer bn3c_branch2c
I0617 13:06:22.863958 15212 net.cpp:444] bn3c_branch2c <- res3c_branch2c
I0617 13:06:22.864001 15212 net.cpp:405] bn3c_branch2c -> res3c_branch2c (in-place)
I0617 13:06:22.864222 15212 net.cpp:150] Setting up bn3c_branch2c
I0617 13:06:22.864447 15212 net.cpp:157] Top shape: 1 512 28 28 (401408)
I0617 13:06:22.864488 15212 net.cpp:165] Memory required for data: 152334476
I0617 13:06:22.864526 15212 layer_factory.hpp:77] Creating layer scale3c_branch2c
I0617 13:06:22.864564 15212 net.cpp:100] Creating Layer scale3c_branch2c
I0617 13:06:22.864605 15212 net.cpp:444] scale3c_branch2c <- res3c_branch2c
I0617 13:06:22.864647 15212 net.cpp:405] scale3c_branch2c -> res3c_branch2c (in-place)
I0617 13:06:22.864737 15212 layer_factory.hpp:77] Creating layer scale3c_branch2c
I0617 13:06:22.864930 15212 net.cpp:150] Setting up scale3c_branch2c
I0617 13:06:22.865085 15212 net.cpp:157] Top shape: 1 512 28 28 (401408)
I0617 13:06:22.865125 15212 net.cpp:165] Memory required for data: 153940108
I0617 13:06:22.865170 15212 layer_factory.hpp:77] Creating layer res3c
I0617 13:06:22.865206 15212 net.cpp:100] Creating Layer res3c
I0617 13:06:22.865242 15212 net.cpp:444] res3c <- res3b_res3b_relu_0_split_1
I0617 13:06:22.865278 15212 net.cpp:444] res3c <- res3c_branch2c
I0617 13:06:22.865319 15212 net.cpp:418] res3c -> res3c
I0617 13:06:22.865386 15212 net.cpp:150] Setting up res3c
I0617 13:06:22.865456 15212 net.cpp:157] Top shape: 1 512 28 28 (401408)
I0617 13:06:22.865497 15212 net.cpp:165] Memory required for data: 155545740
I0617 13:06:22.865536 15212 layer_factory.hpp:77] Creating layer res3c_relu
I0617 13:06:22.865576 15212 net.cpp:100] Creating Layer res3c_relu
I0617 13:06:22.865615 15212 net.cpp:444] res3c_relu <- res3c
I0617 13:06:22.865700 15212 net.cpp:405] res3c_relu -> res3c (in-place)
I0617 13:06:22.865730 15212 net.cpp:150] Setting up res3c_relu
I0617 13:06:22.865752 15212 net.cpp:157] Top shape: 1 512 28 28 (401408)
I0617 13:06:22.865792 15212 net.cpp:165] Memory required for data: 157151372
I0617 13:06:22.865826 15212 layer_factory.hpp:77] Creating layer res3c_res3c_relu_0_split
I0617 13:06:22.865869 15212 net.cpp:100] Creating Layer res3c_res3c_relu_0_split
I0617 13:06:22.865908 15212 net.cpp:444] res3c_res3c_relu_0_split <- res3c
I0617 13:06:22.865947 15212 net.cpp:418] res3c_res3c_relu_0_split -> res3c_res3c_relu_0_split_0
I0617 13:06:22.865991 15212 net.cpp:418] res3c_res3c_relu_0_split -> res3c_res3c_relu_0_split_1
I0617 13:06:22.866073 15212 net.cpp:150] Setting up res3c_res3c_relu_0_split
I0617 13:06:22.866147 15212 net.cpp:157] Top shape: 1 512 28 28 (401408)
I0617 13:06:22.866189 15212 net.cpp:157] Top shape: 1 512 28 28 (401408)
I0617 13:06:22.866228 15212 net.cpp:165] Memory required for data: 160362636
I0617 13:06:22.866262 15212 layer_factory.hpp:77] Creating layer res3d_branch2a
I0617 13:06:22.866304 15212 net.cpp:100] Creating Layer res3d_branch2a
I0617 13:06:22.866353 15212 net.cpp:444] res3d_branch2a <- res3c_res3c_relu_0_split_0
I0617 13:06:22.866394 15212 net.cpp:418] res3d_branch2a -> res3d_branch2a
I0617 13:06:22.867203 15212 net.cpp:150] Setting up res3d_branch2a
I0617 13:06:22.868024 15212 net.cpp:157] Top shape: 1 128 28 28 (100352)
I0617 13:06:22.868072 15212 net.cpp:165] Memory required for data: 160764044
I0617 13:06:22.868115 15212 layer_factory.hpp:77] Creating layer bn3d_branch2a
I0617 13:06:22.868161 15212 net.cpp:100] Creating Layer bn3d_branch2a
I0617 13:06:22.868203 15212 net.cpp:444] bn3d_branch2a <- res3d_branch2a
I0617 13:06:22.868245 15212 net.cpp:405] bn3d_branch2a -> res3d_branch2a (in-place)
I0617 13:06:22.868472 15212 net.cpp:150] Setting up bn3d_branch2a
I0617 13:06:22.868702 15212 net.cpp:157] Top shape: 1 128 28 28 (100352)
I0617 13:06:22.868743 15212 net.cpp:165] Memory required for data: 161165452
I0617 13:06:22.868799 15212 layer_factory.hpp:77] Creating layer scale3d_branch2a
I0617 13:06:22.868858 15212 net.cpp:100] Creating Layer scale3d_branch2a
I0617 13:06:22.868901 15212 net.cpp:444] scale3d_branch2a <- res3d_branch2a
I0617 13:06:22.868945 15212 net.cpp:405] scale3d_branch2a -> res3d_branch2a (in-place)
I0617 13:06:22.869033 15212 layer_factory.hpp:77] Creating layer scale3d_branch2a
I0617 13:06:22.869226 15212 net.cpp:150] Setting up scale3d_branch2a
I0617 13:06:22.869386 15212 net.cpp:157] Top shape: 1 128 28 28 (100352)
I0617 13:06:22.869427 15212 net.cpp:165] Memory required for data: 161566860
I0617 13:06:22.869472 15212 layer_factory.hpp:77] Creating layer res3d_branch2a_relu
I0617 13:06:22.869515 15212 net.cpp:100] Creating Layer res3d_branch2a_relu
I0617 13:06:22.869557 15212 net.cpp:444] res3d_branch2a_relu <- res3d_branch2a
I0617 13:06:22.869599 15212 net.cpp:405] res3d_branch2a_relu -> res3d_branch2a (in-place)
I0617 13:06:22.869671 15212 net.cpp:150] Setting up res3d_branch2a_relu
I0617 13:06:22.869762 15212 net.cpp:157] Top shape: 1 128 28 28 (100352)
I0617 13:06:22.869803 15212 net.cpp:165] Memory required for data: 161968268
I0617 13:06:22.869830 15212 layer_factory.hpp:77] Creating layer res3d_branch2b
I0617 13:06:22.869864 15212 net.cpp:100] Creating Layer res3d_branch2b
I0617 13:06:22.869912 15212 net.cpp:444] res3d_branch2b <- res3d_branch2a
I0617 13:06:22.869956 15212 net.cpp:418] res3d_branch2b -> res3d_branch2b
I0617 13:06:22.870831 15212 net.cpp:150] Setting up res3d_branch2b
I0617 13:06:22.871721 15212 net.cpp:157] Top shape: 1 128 28 28 (100352)
I0617 13:06:22.871763 15212 net.cpp:165] Memory required for data: 162369676
I0617 13:06:22.871807 15212 layer_factory.hpp:77] Creating layer bn3d_branch2b
I0617 13:06:22.871855 15212 net.cpp:100] Creating Layer bn3d_branch2b
I0617 13:06:22.871902 15212 net.cpp:444] bn3d_branch2b <- res3d_branch2b
I0617 13:06:22.871939 15212 net.cpp:405] bn3d_branch2b -> res3d_branch2b (in-place)
I0617 13:06:22.872164 15212 net.cpp:150] Setting up bn3d_branch2b
I0617 13:06:22.872393 15212 net.cpp:157] Top shape: 1 128 28 28 (100352)
I0617 13:06:22.872434 15212 net.cpp:165] Memory required for data: 162771084
I0617 13:06:22.872474 15212 layer_factory.hpp:77] Creating layer scale3d_branch2b
I0617 13:06:22.872526 15212 net.cpp:100] Creating Layer scale3d_branch2b
I0617 13:06:22.872575 15212 net.cpp:444] scale3d_branch2b <- res3d_branch2b
I0617 13:06:22.872611 15212 net.cpp:405] scale3d_branch2b -> res3d_branch2b (in-place)
I0617 13:06:22.872694 15212 layer_factory.hpp:77] Creating layer scale3d_branch2b
I0617 13:06:22.872892 15212 net.cpp:150] Setting up scale3d_branch2b
I0617 13:06:22.873052 15212 net.cpp:157] Top shape: 1 128 28 28 (100352)
I0617 13:06:22.873093 15212 net.cpp:165] Memory required for data: 163172492
I0617 13:06:22.873131 15212 layer_factory.hpp:77] Creating layer res3d_branch2b_relu
I0617 13:06:22.873174 15212 net.cpp:100] Creating Layer res3d_branch2b_relu
I0617 13:06:22.873215 15212 net.cpp:444] res3d_branch2b_relu <- res3d_branch2b
I0617 13:06:22.873260 15212 net.cpp:405] res3d_branch2b_relu -> res3d_branch2b (in-place)
I0617 13:06:22.873302 15212 net.cpp:150] Setting up res3d_branch2b_relu
I0617 13:06:22.873344 15212 net.cpp:157] Top shape: 1 128 28 28 (100352)
I0617 13:06:22.873386 15212 net.cpp:165] Memory required for data: 163573900
I0617 13:06:22.873422 15212 layer_factory.hpp:77] Creating layer res3d_branch2c
I0617 13:06:22.873468 15212 net.cpp:100] Creating Layer res3d_branch2c
I0617 13:06:22.873522 15212 net.cpp:444] res3d_branch2c <- res3d_branch2b
I0617 13:06:22.873560 15212 net.cpp:418] res3d_branch2c -> res3d_branch2c
I0617 13:06:22.873878 15212 net.cpp:150] Setting up res3d_branch2c
I0617 13:06:22.874213 15212 net.cpp:157] Top shape: 1 512 28 28 (401408)
I0617 13:06:22.874254 15212 net.cpp:165] Memory required for data: 165179532
I0617 13:06:22.874290 15212 layer_factory.hpp:77] Creating layer bn3d_branch2c
I0617 13:06:22.874335 15212 net.cpp:100] Creating Layer bn3d_branch2c
I0617 13:06:22.874375 15212 net.cpp:444] bn3d_branch2c <- res3d_branch2c
I0617 13:06:22.874418 15212 net.cpp:405] bn3d_branch2c -> res3d_branch2c (in-place)
I0617 13:06:22.874646 15212 net.cpp:150] Setting up bn3d_branch2c
I0617 13:06:22.874883 15212 net.cpp:157] Top shape: 1 512 28 28 (401408)
I0617 13:06:22.874924 15212 net.cpp:165] Memory required for data: 166785164
I0617 13:06:22.874963 15212 layer_factory.hpp:77] Creating layer scale3d_branch2c
I0617 13:06:22.875013 15212 net.cpp:100] Creating Layer scale3d_branch2c
I0617 13:06:22.875054 15212 net.cpp:444] scale3d_branch2c <- res3d_branch2c
I0617 13:06:22.875092 15212 net.cpp:405] scale3d_branch2c -> res3d_branch2c (in-place)
I0617 13:06:22.875175 15212 layer_factory.hpp:77] Creating layer scale3d_branch2c
I0617 13:06:22.875376 15212 net.cpp:150] Setting up scale3d_branch2c
I0617 13:06:22.875536 15212 net.cpp:157] Top shape: 1 512 28 28 (401408)
I0617 13:06:22.875577 15212 net.cpp:165] Memory required for data: 168390796
I0617 13:06:22.875620 15212 layer_factory.hpp:77] Creating layer res3d
I0617 13:06:22.875665 15212 net.cpp:100] Creating Layer res3d
I0617 13:06:22.875706 15212 net.cpp:444] res3d <- res3c_res3c_relu_0_split_1
I0617 13:06:22.875747 15212 net.cpp:444] res3d <- res3d_branch2c
I0617 13:06:22.875784 15212 net.cpp:418] res3d -> res3d
I0617 13:06:22.875841 15212 net.cpp:150] Setting up res3d
I0617 13:06:22.875907 15212 net.cpp:157] Top shape: 1 512 28 28 (401408)
I0617 13:06:22.875947 15212 net.cpp:165] Memory required for data: 169996428
I0617 13:06:22.875988 15212 layer_factory.hpp:77] Creating layer res3d_relu
I0617 13:06:22.876025 15212 net.cpp:100] Creating Layer res3d_relu
I0617 13:06:22.876065 15212 net.cpp:444] res3d_relu <- res3d
I0617 13:06:22.876109 15212 net.cpp:405] res3d_relu -> res3d (in-place)
I0617 13:06:22.876152 15212 net.cpp:150] Setting up res3d_relu
I0617 13:06:22.876195 15212 net.cpp:157] Top shape: 1 512 28 28 (401408)
I0617 13:06:22.876233 15212 net.cpp:165] Memory required for data: 171602060
I0617 13:06:22.876267 15212 layer_factory.hpp:77] Creating layer res3d_res3d_relu_0_split
I0617 13:06:22.876309 15212 net.cpp:100] Creating Layer res3d_res3d_relu_0_split
I0617 13:06:22.876350 15212 net.cpp:444] res3d_res3d_relu_0_split <- res3d
I0617 13:06:22.876386 15212 net.cpp:418] res3d_res3d_relu_0_split -> res3d_res3d_relu_0_split_0
I0617 13:06:22.876430 15212 net.cpp:418] res3d_res3d_relu_0_split -> res3d_res3d_relu_0_split_1
I0617 13:06:22.876509 15212 net.cpp:150] Setting up res3d_res3d_relu_0_split
I0617 13:06:22.876591 15212 net.cpp:157] Top shape: 1 512 28 28 (401408)
I0617 13:06:22.876634 15212 net.cpp:157] Top shape: 1 512 28 28 (401408)
I0617 13:06:22.876673 15212 net.cpp:165] Memory required for data: 174813324
I0617 13:06:22.876700 15212 layer_factory.hpp:77] Creating layer res4a_branch1
I0617 13:06:22.876740 15212 net.cpp:100] Creating Layer res4a_branch1
I0617 13:06:22.876782 15212 net.cpp:444] res4a_branch1 <- res3d_res3d_relu_0_split_0
I0617 13:06:22.876826 15212 net.cpp:418] res4a_branch1 -> res4a_branch1
I0617 13:06:22.878316 15212 net.cpp:150] Setting up res4a_branch1
I0617 13:06:22.879835 15212 net.cpp:157] Top shape: 1 1024 14 14 (200704)
I0617 13:06:22.879874 15212 net.cpp:165] Memory required for data: 175616140
I0617 13:06:22.879911 15212 layer_factory.hpp:77] Creating layer bn4a_branch1
I0617 13:06:22.879956 15212 net.cpp:100] Creating Layer bn4a_branch1
I0617 13:06:22.880003 15212 net.cpp:444] bn4a_branch1 <- res4a_branch1
I0617 13:06:22.880040 15212 net.cpp:405] bn4a_branch1 -> res4a_branch1 (in-place)
I0617 13:06:22.880285 15212 net.cpp:150] Setting up bn4a_branch1
I0617 13:06:22.880533 15212 net.cpp:157] Top shape: 1 1024 14 14 (200704)
I0617 13:06:22.880566 15212 net.cpp:165] Memory required for data: 176418956
I0617 13:06:22.880611 15212 layer_factory.hpp:77] Creating layer scale4a_branch1
I0617 13:06:22.880656 15212 net.cpp:100] Creating Layer scale4a_branch1
I0617 13:06:22.880703 15212 net.cpp:444] scale4a_branch1 <- res4a_branch1
I0617 13:06:22.880739 15212 net.cpp:405] scale4a_branch1 -> res4a_branch1 (in-place)
I0617 13:06:22.880816 15212 layer_factory.hpp:77] Creating layer scale4a_branch1
I0617 13:06:22.881011 15212 net.cpp:150] Setting up scale4a_branch1
I0617 13:06:22.881172 15212 net.cpp:157] Top shape: 1 1024 14 14 (200704)
I0617 13:06:22.881212 15212 net.cpp:165] Memory required for data: 177221772
I0617 13:06:22.881256 15212 layer_factory.hpp:77] Creating layer res4a_branch2a
I0617 13:06:22.881304 15212 net.cpp:100] Creating Layer res4a_branch2a
I0617 13:06:22.881345 15212 net.cpp:444] res4a_branch2a <- res3d_res3d_relu_0_split_1
I0617 13:06:22.881389 15212 net.cpp:418] res4a_branch2a -> res4a_branch2a
I0617 13:06:22.881773 15212 net.cpp:150] Setting up res4a_branch2a
I0617 13:06:22.882169 15212 net.cpp:157] Top shape: 1 256 14 14 (50176)
I0617 13:06:22.882210 15212 net.cpp:165] Memory required for data: 177422476
I0617 13:06:22.882251 15212 layer_factory.hpp:77] Creating layer bn4a_branch2a
I0617 13:06:22.882297 15212 net.cpp:100] Creating Layer bn4a_branch2a
I0617 13:06:22.882339 15212 net.cpp:444] bn4a_branch2a <- res4a_branch2a
I0617 13:06:22.882381 15212 net.cpp:405] bn4a_branch2a -> res4a_branch2a (in-place)
I0617 13:06:22.882601 15212 net.cpp:150] Setting up bn4a_branch2a
I0617 13:06:22.882825 15212 net.cpp:157] Top shape: 1 256 14 14 (50176)
I0617 13:06:22.882865 15212 net.cpp:165] Memory required for data: 177623180
I0617 13:06:22.882905 15212 layer_factory.hpp:77] Creating layer scale4a_branch2a
I0617 13:06:22.882957 15212 net.cpp:100] Creating Layer scale4a_branch2a
I0617 13:06:22.882999 15212 net.cpp:444] scale4a_branch2a <- res4a_branch2a
I0617 13:06:22.883044 15212 net.cpp:405] scale4a_branch2a -> res4a_branch2a (in-place)
I0617 13:06:22.883116 15212 layer_factory.hpp:77] Creating layer scale4a_branch2a
I0617 13:06:22.883309 15212 net.cpp:150] Setting up scale4a_branch2a
I0617 13:06:22.883463 15212 net.cpp:157] Top shape: 1 256 14 14 (50176)
I0617 13:06:22.883503 15212 net.cpp:165] Memory required for data: 177823884
I0617 13:06:22.883541 15212 layer_factory.hpp:77] Creating layer res4a_branch2a_relu
I0617 13:06:22.883590 15212 net.cpp:100] Creating Layer res4a_branch2a_relu
I0617 13:06:22.883631 15212 net.cpp:444] res4a_branch2a_relu <- res4a_branch2a
I0617 13:06:22.883669 15212 net.cpp:405] res4a_branch2a_relu -> res4a_branch2a (in-place)
I0617 13:06:22.883713 15212 net.cpp:150] Setting up res4a_branch2a_relu
I0617 13:06:22.883755 15212 net.cpp:157] Top shape: 1 256 14 14 (50176)
I0617 13:06:22.883795 15212 net.cpp:165] Memory required for data: 178024588
I0617 13:06:22.883836 15212 layer_factory.hpp:77] Creating layer res4a_branch2b
I0617 13:06:22.883877 15212 net.cpp:100] Creating Layer res4a_branch2b
I0617 13:06:22.883922 15212 net.cpp:444] res4a_branch2b <- res4a_branch2a
I0617 13:06:22.883967 15212 net.cpp:418] res4a_branch2b -> res4a_branch2b
I0617 13:06:22.885511 15212 net.cpp:150] Setting up res4a_branch2b
I0617 13:06:22.887068 15212 net.cpp:157] Top shape: 1 256 14 14 (50176)
I0617 13:06:22.887111 15212 net.cpp:165] Memory required for data: 178225292
I0617 13:06:22.887153 15212 layer_factory.hpp:77] Creating layer bn4a_branch2b
I0617 13:06:22.887199 15212 net.cpp:100] Creating Layer bn4a_branch2b
I0617 13:06:22.887241 15212 net.cpp:444] bn4a_branch2b <- res4a_branch2b
I0617 13:06:22.887284 15212 net.cpp:405] bn4a_branch2b -> res4a_branch2b (in-place)
I0617 13:06:22.887506 15212 net.cpp:150] Setting up bn4a_branch2b
I0617 13:06:22.887730 15212 net.cpp:157] Top shape: 1 256 14 14 (50176)
I0617 13:06:22.887771 15212 net.cpp:165] Memory required for data: 178425996
I0617 13:06:22.887825 15212 layer_factory.hpp:77] Creating layer scale4a_branch2b
I0617 13:06:22.887871 15212 net.cpp:100] Creating Layer scale4a_branch2b
I0617 13:06:22.887918 15212 net.cpp:444] scale4a_branch2b <- res4a_branch2b
I0617 13:06:22.887955 15212 net.cpp:405] scale4a_branch2b -> res4a_branch2b (in-place)
I0617 13:06:22.888039 15212 layer_factory.hpp:77] Creating layer scale4a_branch2b
I0617 13:06:22.888236 15212 net.cpp:150] Setting up scale4a_branch2b
I0617 13:06:22.888388 15212 net.cpp:157] Top shape: 1 256 14 14 (50176)
I0617 13:06:22.888423 15212 net.cpp:165] Memory required for data: 178626700
I0617 13:06:22.888460 15212 layer_factory.hpp:77] Creating layer res4a_branch2b_relu
I0617 13:06:22.888504 15212 net.cpp:100] Creating Layer res4a_branch2b_relu
I0617 13:06:22.888545 15212 net.cpp:444] res4a_branch2b_relu <- res4a_branch2b
I0617 13:06:22.888588 15212 net.cpp:405] res4a_branch2b_relu -> res4a_branch2b (in-place)
I0617 13:06:22.888633 15212 net.cpp:150] Setting up res4a_branch2b_relu
I0617 13:06:22.888676 15212 net.cpp:157] Top shape: 1 256 14 14 (50176)
I0617 13:06:22.888716 15212 net.cpp:165] Memory required for data: 178827404
I0617 13:06:22.888756 15212 layer_factory.hpp:77] Creating layer res4a_branch2c
I0617 13:06:22.888795 15212 net.cpp:100] Creating Layer res4a_branch2c
I0617 13:06:22.888844 15212 net.cpp:444] res4a_branch2c <- res4a_branch2b
I0617 13:06:22.888880 15212 net.cpp:418] res4a_branch2c -> res4a_branch2c
I0617 13:06:22.889864 15212 net.cpp:150] Setting up res4a_branch2c
I0617 13:06:22.890873 15212 net.cpp:157] Top shape: 1 1024 14 14 (200704)
I0617 13:06:22.890914 15212 net.cpp:165] Memory required for data: 179630220
I0617 13:06:22.890951 15212 layer_factory.hpp:77] Creating layer bn4a_branch2c
I0617 13:06:22.890997 15212 net.cpp:100] Creating Layer bn4a_branch2c
I0617 13:06:22.891046 15212 net.cpp:444] bn4a_branch2c <- res4a_branch2c
I0617 13:06:22.891079 15212 net.cpp:405] bn4a_branch2c -> res4a_branch2c (in-place)
I0617 13:06:22.891300 15212 net.cpp:150] Setting up bn4a_branch2c
I0617 13:06:22.891544 15212 net.cpp:157] Top shape: 1 1024 14 14 (200704)
I0617 13:06:22.891577 15212 net.cpp:165] Memory required for data: 180433036
I0617 13:06:22.891610 15212 layer_factory.hpp:77] Creating layer scale4a_branch2c
I0617 13:06:22.891654 15212 net.cpp:100] Creating Layer scale4a_branch2c
I0617 13:06:22.891700 15212 net.cpp:444] scale4a_branch2c <- res4a_branch2c
I0617 13:06:22.891738 15212 net.cpp:405] scale4a_branch2c -> res4a_branch2c (in-place)
I0617 13:06:22.891819 15212 layer_factory.hpp:77] Creating layer scale4a_branch2c
I0617 13:06:22.892021 15212 net.cpp:150] Setting up scale4a_branch2c
I0617 13:06:22.892180 15212 net.cpp:157] Top shape: 1 1024 14 14 (200704)
I0617 13:06:22.892221 15212 net.cpp:165] Memory required for data: 181235852
I0617 13:06:22.892266 15212 layer_factory.hpp:77] Creating layer res4a
I0617 13:06:22.892308 15212 net.cpp:100] Creating Layer res4a
I0617 13:06:22.892349 15212 net.cpp:444] res4a <- res4a_branch1
I0617 13:06:22.892385 15212 net.cpp:444] res4a <- res4a_branch2c
I0617 13:06:22.892428 15212 net.cpp:418] res4a -> res4a
I0617 13:06:22.892493 15212 net.cpp:150] Setting up res4a
I0617 13:06:22.892565 15212 net.cpp:157] Top shape: 1 1024 14 14 (200704)
I0617 13:06:22.892606 15212 net.cpp:165] Memory required for data: 182038668
I0617 13:06:22.892638 15212 layer_factory.hpp:77] Creating layer res4a_relu
I0617 13:06:22.892669 15212 net.cpp:100] Creating Layer res4a_relu
I0617 13:06:22.892709 15212 net.cpp:444] res4a_relu <- res4a
I0617 13:06:22.892750 15212 net.cpp:405] res4a_relu -> res4a (in-place)
I0617 13:06:22.892788 15212 net.cpp:150] Setting up res4a_relu
I0617 13:06:22.892837 15212 net.cpp:157] Top shape: 1 1024 14 14 (200704)
I0617 13:06:22.892870 15212 net.cpp:165] Memory required for data: 182841484
I0617 13:06:22.892910 15212 layer_factory.hpp:77] Creating layer res4a_res4a_relu_0_split
I0617 13:06:22.892951 15212 net.cpp:100] Creating Layer res4a_res4a_relu_0_split
I0617 13:06:22.892997 15212 net.cpp:444] res4a_res4a_relu_0_split <- res4a
I0617 13:06:22.893040 15212 net.cpp:418] res4a_res4a_relu_0_split -> res4a_res4a_relu_0_split_0
I0617 13:06:22.893100 15212 net.cpp:418] res4a_res4a_relu_0_split -> res4a_res4a_relu_0_split_1
I0617 13:06:22.893185 15212 net.cpp:150] Setting up res4a_res4a_relu_0_split
I0617 13:06:22.893273 15212 net.cpp:157] Top shape: 1 1024 14 14 (200704)
I0617 13:06:22.893314 15212 net.cpp:157] Top shape: 1 1024 14 14 (200704)
I0617 13:06:22.893348 15212 net.cpp:165] Memory required for data: 184447116
I0617 13:06:22.893389 15212 layer_factory.hpp:77] Creating layer res4b_branch2a
I0617 13:06:22.893429 15212 net.cpp:100] Creating Layer res4b_branch2a
I0617 13:06:22.893477 15212 net.cpp:444] res4b_branch2a <- res4a_res4a_relu_0_split_0
I0617 13:06:22.893522 15212 net.cpp:418] res4b_branch2a -> res4b_branch2a
I0617 13:06:22.894507 15212 net.cpp:150] Setting up res4b_branch2a
I0617 13:06:22.895509 15212 net.cpp:157] Top shape: 1 256 14 14 (50176)
I0617 13:06:22.895551 15212 net.cpp:165] Memory required for data: 184647820
I0617 13:06:22.895594 15212 layer_factory.hpp:77] Creating layer bn4b_branch2a
I0617 13:06:22.895642 15212 net.cpp:100] Creating Layer bn4b_branch2a
I0617 13:06:22.895690 15212 net.cpp:444] bn4b_branch2a <- res4b_branch2a
I0617 13:06:22.895727 15212 net.cpp:405] bn4b_branch2a -> res4b_branch2a (in-place)
I0617 13:06:22.895953 15212 net.cpp:150] Setting up bn4b_branch2a
I0617 13:06:22.896189 15212 net.cpp:157] Top shape: 1 256 14 14 (50176)
I0617 13:06:22.896229 15212 net.cpp:165] Memory required for data: 184848524
I0617 13:06:22.896268 15212 layer_factory.hpp:77] Creating layer scale4b_branch2a
I0617 13:06:22.896317 15212 net.cpp:100] Creating Layer scale4b_branch2a
I0617 13:06:22.896358 15212 net.cpp:444] scale4b_branch2a <- res4b_branch2a
I0617 13:06:22.896395 15212 net.cpp:405] scale4b_branch2a -> res4b_branch2a (in-place)
I0617 13:06:22.896481 15212 layer_factory.hpp:77] Creating layer scale4b_branch2a
I0617 13:06:22.896667 15212 net.cpp:150] Setting up scale4b_branch2a
I0617 13:06:22.896821 15212 net.cpp:157] Top shape: 1 256 14 14 (50176)
I0617 13:06:22.896862 15212 net.cpp:165] Memory required for data: 185049228
I0617 13:06:22.896899 15212 layer_factory.hpp:77] Creating layer res4b_branch2a_relu
I0617 13:06:22.896948 15212 net.cpp:100] Creating Layer res4b_branch2a_relu
I0617 13:06:22.896989 15212 net.cpp:444] res4b_branch2a_relu <- res4b_branch2a
I0617 13:06:22.897025 15212 net.cpp:405] res4b_branch2a_relu -> res4b_branch2a (in-place)
I0617 13:06:22.897068 15212 net.cpp:150] Setting up res4b_branch2a_relu
I0617 13:06:22.897110 15212 net.cpp:157] Top shape: 1 256 14 14 (50176)
I0617 13:06:22.897150 15212 net.cpp:165] Memory required for data: 185249932
I0617 13:06:22.897183 15212 layer_factory.hpp:77] Creating layer res4b_branch2b
I0617 13:06:22.897230 15212 net.cpp:100] Creating Layer res4b_branch2b
I0617 13:06:22.897271 15212 net.cpp:444] res4b_branch2b <- res4b_branch2a
I0617 13:06:22.897316 15212 net.cpp:418] res4b_branch2b -> res4b_branch2b
I0617 13:06:22.898923 15212 net.cpp:150] Setting up res4b_branch2b
I0617 13:06:22.900562 15212 net.cpp:157] Top shape: 1 256 14 14 (50176)
I0617 13:06:22.900610 15212 net.cpp:165] Memory required for data: 185450636
I0617 13:06:22.900653 15212 layer_factory.hpp:77] Creating layer bn4b_branch2b
I0617 13:06:22.900697 15212 net.cpp:100] Creating Layer bn4b_branch2b
I0617 13:06:22.900739 15212 net.cpp:444] bn4b_branch2b <- res4b_branch2b
I0617 13:06:22.900782 15212 net.cpp:405] bn4b_branch2b -> res4b_branch2b (in-place)
I0617 13:06:22.901008 15212 net.cpp:150] Setting up bn4b_branch2b
I0617 13:06:22.901239 15212 net.cpp:157] Top shape: 1 256 14 14 (50176)
I0617 13:06:22.901273 15212 net.cpp:165] Memory required for data: 185651340
I0617 13:06:22.901319 15212 layer_factory.hpp:77] Creating layer scale4b_branch2b
I0617 13:06:22.901365 15212 net.cpp:100] Creating Layer scale4b_branch2b
I0617 13:06:22.901412 15212 net.cpp:444] scale4b_branch2b <- res4b_branch2b
I0617 13:06:22.901448 15212 net.cpp:405] scale4b_branch2b -> res4b_branch2b (in-place)
I0617 13:06:22.901531 15212 layer_factory.hpp:77] Creating layer scale4b_branch2b
I0617 13:06:22.901788 15212 net.cpp:150] Setting up scale4b_branch2b
I0617 13:06:22.902005 15212 net.cpp:157] Top shape: 1 256 14 14 (50176)
I0617 13:06:22.902046 15212 net.cpp:165] Memory required for data: 185852044
I0617 13:06:22.902089 15212 layer_factory.hpp:77] Creating layer res4b_branch2b_relu
I0617 13:06:22.902134 15212 net.cpp:100] Creating Layer res4b_branch2b_relu
I0617 13:06:22.902175 15212 net.cpp:444] res4b_branch2b_relu <- res4b_branch2b
I0617 13:06:22.902210 15212 net.cpp:405] res4b_branch2b_relu -> res4b_branch2b (in-place)
I0617 13:06:22.902254 15212 net.cpp:150] Setting up res4b_branch2b_relu
I0617 13:06:22.902297 15212 net.cpp:157] Top shape: 1 256 14 14 (50176)
I0617 13:06:22.902335 15212 net.cpp:165] Memory required for data: 186052748
I0617 13:06:22.902374 15212 layer_factory.hpp:77] Creating layer res4b_branch2c
I0617 13:06:22.902413 15212 net.cpp:100] Creating Layer res4b_branch2c
I0617 13:06:22.902459 15212 net.cpp:444] res4b_branch2c <- res4b_branch2b
I0617 13:06:22.902496 15212 net.cpp:418] res4b_branch2c -> res4b_branch2c
I0617 13:06:22.903434 15212 net.cpp:150] Setting up res4b_branch2c
I0617 13:06:22.904386 15212 net.cpp:157] Top shape: 1 1024 14 14 (200704)
I0617 13:06:22.904428 15212 net.cpp:165] Memory required for data: 186855564
I0617 13:06:22.904472 15212 layer_factory.hpp:77] Creating layer bn4b_branch2c
I0617 13:06:22.904518 15212 net.cpp:100] Creating Layer bn4b_branch2c
I0617 13:06:22.904561 15212 net.cpp:444] bn4b_branch2c <- res4b_branch2c
I0617 13:06:22.904604 15212 net.cpp:405] bn4b_branch2c -> res4b_branch2c (in-place)
I0617 13:06:22.904844 15212 net.cpp:150] Setting up bn4b_branch2c
I0617 13:06:22.905093 15212 net.cpp:157] Top shape: 1 1024 14 14 (200704)
I0617 13:06:22.905134 15212 net.cpp:165] Memory required for data: 187658380
I0617 13:06:22.905180 15212 layer_factory.hpp:77] Creating layer scale4b_branch2c
I0617 13:06:22.905227 15212 net.cpp:100] Creating Layer scale4b_branch2c
I0617 13:06:22.905275 15212 net.cpp:444] scale4b_branch2c <- res4b_branch2c
I0617 13:06:22.905318 15212 net.cpp:405] scale4b_branch2c -> res4b_branch2c (in-place)
I0617 13:06:22.905400 15212 layer_factory.hpp:77] Creating layer scale4b_branch2c
I0617 13:06:22.905613 15212 net.cpp:150] Setting up scale4b_branch2c
I0617 13:06:22.905833 15212 net.cpp:157] Top shape: 1 1024 14 14 (200704)
I0617 13:06:22.905877 15212 net.cpp:165] Memory required for data: 188461196
I0617 13:06:22.905922 15212 layer_factory.hpp:77] Creating layer res4b
I0617 13:06:22.905966 15212 net.cpp:100] Creating Layer res4b
I0617 13:06:22.906006 15212 net.cpp:444] res4b <- res4a_res4a_relu_0_split_1
I0617 13:06:22.906051 15212 net.cpp:444] res4b <- res4b_branch2c
I0617 13:06:22.906096 15212 net.cpp:418] res4b -> res4b
I0617 13:06:22.906164 15212 net.cpp:150] Setting up res4b
I0617 13:06:22.906234 15212 net.cpp:157] Top shape: 1 1024 14 14 (200704)
I0617 13:06:22.906275 15212 net.cpp:165] Memory required for data: 189264012
I0617 13:06:22.906316 15212 layer_factory.hpp:77] Creating layer res4b_relu
I0617 13:06:22.906352 15212 net.cpp:100] Creating Layer res4b_relu
I0617 13:06:22.906393 15212 net.cpp:444] res4b_relu <- res4b
I0617 13:06:22.906430 15212 net.cpp:405] res4b_relu -> res4b (in-place)
I0617 13:06:22.906469 15212 net.cpp:150] Setting up res4b_relu
I0617 13:06:22.906512 15212 net.cpp:157] Top shape: 1 1024 14 14 (200704)
I0617 13:06:22.906551 15212 net.cpp:165] Memory required for data: 190066828
I0617 13:06:22.906584 15212 layer_factory.hpp:77] Creating layer res4b_res4b_relu_0_split
I0617 13:06:22.906627 15212 net.cpp:100] Creating Layer res4b_res4b_relu_0_split
I0617 13:06:22.906668 15212 net.cpp:444] res4b_res4b_relu_0_split <- res4b
I0617 13:06:22.906710 15212 net.cpp:418] res4b_res4b_relu_0_split -> res4b_res4b_relu_0_split_0
I0617 13:06:22.906754 15212 net.cpp:418] res4b_res4b_relu_0_split -> res4b_res4b_relu_0_split_1
I0617 13:06:22.906832 15212 net.cpp:150] Setting up res4b_res4b_relu_0_split
I0617 13:06:22.906915 15212 net.cpp:157] Top shape: 1 1024 14 14 (200704)
I0617 13:06:22.906965 15212 net.cpp:157] Top shape: 1 1024 14 14 (200704)
I0617 13:06:22.906996 15212 net.cpp:165] Memory required for data: 191672460
I0617 13:06:22.907025 15212 layer_factory.hpp:77] Creating layer res4c_branch2a
I0617 13:06:22.907064 15212 net.cpp:100] Creating Layer res4c_branch2a
I0617 13:06:22.907112 15212 net.cpp:444] res4c_branch2a <- res4b_res4b_relu_0_split_0
I0617 13:06:22.907157 15212 net.cpp:418] res4c_branch2a -> res4c_branch2a
I0617 13:06:22.908094 15212 net.cpp:150] Setting up res4c_branch2a
I0617 13:06:22.909047 15212 net.cpp:157] Top shape: 1 256 14 14 (50176)
I0617 13:06:22.909088 15212 net.cpp:165] Memory required for data: 191873164
I0617 13:06:22.909123 15212 layer_factory.hpp:77] Creating layer bn4c_branch2a
I0617 13:06:22.909155 15212 net.cpp:100] Creating Layer bn4c_branch2a
I0617 13:06:22.909201 15212 net.cpp:444] bn4c_branch2a <- res4c_branch2a
I0617 13:06:22.909238 15212 net.cpp:405] bn4c_branch2a -> res4c_branch2a (in-place)
I0617 13:06:22.909464 15212 net.cpp:150] Setting up bn4c_branch2a
I0617 13:06:22.909690 15212 net.cpp:157] Top shape: 1 256 14 14 (50176)
I0617 13:06:22.909740 15212 net.cpp:165] Memory required for data: 192073868
I0617 13:06:22.909781 15212 layer_factory.hpp:77] Creating layer scale4c_branch2a
I0617 13:06:22.909832 15212 net.cpp:100] Creating Layer scale4c_branch2a
I0617 13:06:22.909874 15212 net.cpp:444] scale4c_branch2a <- res4c_branch2a
I0617 13:06:22.909916 15212 net.cpp:405] scale4c_branch2a -> res4c_branch2a (in-place)
I0617 13:06:22.909999 15212 layer_factory.hpp:77] Creating layer scale4c_branch2a
I0617 13:06:22.910197 15212 net.cpp:150] Setting up scale4c_branch2a
I0617 13:06:22.910356 15212 net.cpp:157] Top shape: 1 256 14 14 (50176)
I0617 13:06:22.910398 15212 net.cpp:165] Memory required for data: 192274572
I0617 13:06:22.910435 15212 layer_factory.hpp:77] Creating layer res4c_branch2a_relu
I0617 13:06:22.910482 15212 net.cpp:100] Creating Layer res4c_branch2a_relu
I0617 13:06:22.910531 15212 net.cpp:444] res4c_branch2a_relu <- res4c_branch2a
I0617 13:06:22.910573 15212 net.cpp:405] res4c_branch2a_relu -> res4c_branch2a (in-place)
I0617 13:06:22.910616 15212 net.cpp:150] Setting up res4c_branch2a_relu
I0617 13:06:22.910658 15212 net.cpp:157] Top shape: 1 256 14 14 (50176)
I0617 13:06:22.910683 15212 net.cpp:165] Memory required for data: 192475276
I0617 13:06:22.910717 15212 layer_factory.hpp:77] Creating layer res4c_branch2b
I0617 13:06:22.910758 15212 net.cpp:100] Creating Layer res4c_branch2b
I0617 13:06:22.910804 15212 net.cpp:444] res4c_branch2b <- res4c_branch2a
I0617 13:06:22.910841 15212 net.cpp:418] res4c_branch2b -> res4c_branch2b
I0617 13:06:22.912372 15212 net.cpp:150] Setting up res4c_branch2b
I0617 13:06:22.913923 15212 net.cpp:157] Top shape: 1 256 14 14 (50176)
I0617 13:06:22.913967 15212 net.cpp:165] Memory required for data: 192675980
I0617 13:06:22.914011 15212 layer_factory.hpp:77] Creating layer bn4c_branch2b
I0617 13:06:22.914057 15212 net.cpp:100] Creating Layer bn4c_branch2b
I0617 13:06:22.914098 15212 net.cpp:444] bn4c_branch2b <- res4c_branch2b
I0617 13:06:22.914139 15212 net.cpp:405] bn4c_branch2b -> res4c_branch2b (in-place)
I0617 13:06:22.914376 15212 net.cpp:150] Setting up bn4c_branch2b
I0617 13:06:22.914619 15212 net.cpp:157] Top shape: 1 256 14 14 (50176)
I0617 13:06:22.914660 15212 net.cpp:165] Memory required for data: 192876684
I0617 13:06:22.914700 15212 layer_factory.hpp:77] Creating layer scale4c_branch2b
I0617 13:06:22.914752 15212 net.cpp:100] Creating Layer scale4c_branch2b
I0617 13:06:22.914791 15212 net.cpp:444] scale4c_branch2b <- res4c_branch2b
I0617 13:06:22.914834 15212 net.cpp:405] scale4c_branch2b -> res4c_branch2b (in-place)
I0617 13:06:22.914917 15212 layer_factory.hpp:77] Creating layer scale4c_branch2b
I0617 13:06:22.915114 15212 net.cpp:150] Setting up scale4c_branch2b
I0617 13:06:22.915272 15212 net.cpp:157] Top shape: 1 256 14 14 (50176)
I0617 13:06:22.915311 15212 net.cpp:165] Memory required for data: 193077388
I0617 13:06:22.915349 15212 layer_factory.hpp:77] Creating layer res4c_branch2b_relu
I0617 13:06:22.915401 15212 net.cpp:100] Creating Layer res4c_branch2b_relu
I0617 13:06:22.915449 15212 net.cpp:444] res4c_branch2b_relu <- res4c_branch2b
I0617 13:06:22.915485 15212 net.cpp:405] res4c_branch2b_relu -> res4c_branch2b (in-place)
I0617 13:06:22.915529 15212 net.cpp:150] Setting up res4c_branch2b_relu
I0617 13:06:22.915570 15212 net.cpp:157] Top shape: 1 256 14 14 (50176)
I0617 13:06:22.915611 15212 net.cpp:165] Memory required for data: 193278092
I0617 13:06:22.915649 15212 layer_factory.hpp:77] Creating layer res4c_branch2c
I0617 13:06:22.915690 15212 net.cpp:100] Creating Layer res4c_branch2c
I0617 13:06:22.915738 15212 net.cpp:444] res4c_branch2c <- res4c_branch2b
I0617 13:06:22.915776 15212 net.cpp:418] res4c_branch2c -> res4c_branch2c
I0617 13:06:22.916715 15212 net.cpp:150] Setting up res4c_branch2c
I0617 13:06:22.917690 15212 net.cpp:157] Top shape: 1 1024 14 14 (200704)
I0617 13:06:22.917713 15212 net.cpp:165] Memory required for data: 194080908
I0617 13:06:22.917757 15212 layer_factory.hpp:77] Creating layer bn4c_branch2c
I0617 13:06:22.917804 15212 net.cpp:100] Creating Layer bn4c_branch2c
I0617 13:06:22.917847 15212 net.cpp:444] bn4c_branch2c <- res4c_branch2c
I0617 13:06:22.917891 15212 net.cpp:405] bn4c_branch2c -> res4c_branch2c (in-place)
I0617 13:06:22.918148 15212 net.cpp:150] Setting up bn4c_branch2c
I0617 13:06:22.918416 15212 net.cpp:157] Top shape: 1 1024 14 14 (200704)
I0617 13:06:22.918457 15212 net.cpp:165] Memory required for data: 194883724
I0617 13:06:22.918496 15212 layer_factory.hpp:77] Creating layer scale4c_branch2c
I0617 13:06:22.918545 15212 net.cpp:100] Creating Layer scale4c_branch2c
I0617 13:06:22.918592 15212 net.cpp:444] scale4c_branch2c <- res4c_branch2c
I0617 13:06:22.918635 15212 net.cpp:405] scale4c_branch2c -> res4c_branch2c (in-place)
I0617 13:06:22.918720 15212 layer_factory.hpp:77] Creating layer scale4c_branch2c
I0617 13:06:22.918926 15212 net.cpp:150] Setting up scale4c_branch2c
I0617 13:06:22.919092 15212 net.cpp:157] Top shape: 1 1024 14 14 (200704)
I0617 13:06:22.919133 15212 net.cpp:165] Memory required for data: 195686540
I0617 13:06:22.919176 15212 layer_factory.hpp:77] Creating layer res4c
I0617 13:06:22.919222 15212 net.cpp:100] Creating Layer res4c
I0617 13:06:22.919265 15212 net.cpp:444] res4c <- res4b_res4b_relu_0_split_1
I0617 13:06:22.919306 15212 net.cpp:444] res4c <- res4c_branch2c
I0617 13:06:22.919348 15212 net.cpp:418] res4c -> res4c
I0617 13:06:22.919411 15212 net.cpp:150] Setting up res4c
I0617 13:06:22.919487 15212 net.cpp:157] Top shape: 1 1024 14 14 (200704)
I0617 13:06:22.919528 15212 net.cpp:165] Memory required for data: 196489356
I0617 13:06:22.919562 15212 layer_factory.hpp:77] Creating layer res4c_relu
I0617 13:06:22.919605 15212 net.cpp:100] Creating Layer res4c_relu
I0617 13:06:22.919646 15212 net.cpp:444] res4c_relu <- res4c
I0617 13:06:22.919683 15212 net.cpp:405] res4c_relu -> res4c (in-place)
I0617 13:06:22.919728 15212 net.cpp:150] Setting up res4c_relu
I0617 13:06:22.919776 15212 net.cpp:157] Top shape: 1 1024 14 14 (200704)
I0617 13:06:22.919811 15212 net.cpp:165] Memory required for data: 197292172
I0617 13:06:22.919852 15212 layer_factory.hpp:77] Creating layer res4c_res4c_relu_0_split
I0617 13:06:22.919888 15212 net.cpp:100] Creating Layer res4c_res4c_relu_0_split
I0617 13:06:22.919929 15212 net.cpp:444] res4c_res4c_relu_0_split <- res4c
I0617 13:06:22.919970 15212 net.cpp:418] res4c_res4c_relu_0_split -> res4c_res4c_relu_0_split_0
I0617 13:06:22.920016 15212 net.cpp:418] res4c_res4c_relu_0_split -> res4c_res4c_relu_0_split_1
I0617 13:06:22.920094 15212 net.cpp:150] Setting up res4c_res4c_relu_0_split
I0617 13:06:22.920176 15212 net.cpp:157] Top shape: 1 1024 14 14 (200704)
I0617 13:06:22.920218 15212 net.cpp:157] Top shape: 1 1024 14 14 (200704)
I0617 13:06:22.920249 15212 net.cpp:165] Memory required for data: 198897804
I0617 13:06:22.920279 15212 layer_factory.hpp:77] Creating layer res4d_branch2a
I0617 13:06:22.920317 15212 net.cpp:100] Creating Layer res4d_branch2a
I0617 13:06:22.920364 15212 net.cpp:444] res4d_branch2a <- res4c_res4c_relu_0_split_0
I0617 13:06:22.920416 15212 net.cpp:418] res4d_branch2a -> res4d_branch2a
I0617 13:06:22.921355 15212 net.cpp:150] Setting up res4d_branch2a
I0617 13:06:22.922312 15212 net.cpp:157] Top shape: 1 256 14 14 (50176)
I0617 13:06:22.922358 15212 net.cpp:165] Memory required for data: 199098508
I0617 13:06:22.922401 15212 layer_factory.hpp:77] Creating layer bn4d_branch2a
I0617 13:06:22.922446 15212 net.cpp:100] Creating Layer bn4d_branch2a
I0617 13:06:22.922487 15212 net.cpp:444] bn4d_branch2a <- res4d_branch2a
I0617 13:06:22.922529 15212 net.cpp:405] bn4d_branch2a -> res4d_branch2a (in-place)
I0617 13:06:22.922760 15212 net.cpp:150] Setting up bn4d_branch2a
I0617 13:06:22.922997 15212 net.cpp:157] Top shape: 1 256 14 14 (50176)
I0617 13:06:22.923038 15212 net.cpp:165] Memory required for data: 199299212
I0617 13:06:22.923077 15212 layer_factory.hpp:77] Creating layer scale4d_branch2a
I0617 13:06:22.923131 15212 net.cpp:100] Creating Layer scale4d_branch2a
I0617 13:06:22.923178 15212 net.cpp:444] scale4d_branch2a <- res4d_branch2a
I0617 13:06:22.923215 15212 net.cpp:405] scale4d_branch2a -> res4d_branch2a (in-place)
I0617 13:06:22.923298 15212 layer_factory.hpp:77] Creating layer scale4d_branch2a
I0617 13:06:22.923497 15212 net.cpp:150] Setting up scale4d_branch2a
I0617 13:06:22.923657 15212 net.cpp:157] Top shape: 1 256 14 14 (50176)
I0617 13:06:22.923698 15212 net.cpp:165] Memory required for data: 199499916
I0617 13:06:22.923741 15212 layer_factory.hpp:77] Creating layer res4d_branch2a_relu
I0617 13:06:22.923786 15212 net.cpp:100] Creating Layer res4d_branch2a_relu
I0617 13:06:22.923828 15212 net.cpp:444] res4d_branch2a_relu <- res4d_branch2a
I0617 13:06:22.923871 15212 net.cpp:405] res4d_branch2a_relu -> res4d_branch2a (in-place)
I0617 13:06:22.923913 15212 net.cpp:150] Setting up res4d_branch2a_relu
I0617 13:06:22.923955 15212 net.cpp:157] Top shape: 1 256 14 14 (50176)
I0617 13:06:22.923986 15212 net.cpp:165] Memory required for data: 199700620
I0617 13:06:22.924021 15212 layer_factory.hpp:77] Creating layer res4d_branch2b
I0617 13:06:22.924067 15212 net.cpp:100] Creating Layer res4d_branch2b
I0617 13:06:22.924115 15212 net.cpp:444] res4d_branch2b <- res4d_branch2a
I0617 13:06:22.924154 15212 net.cpp:418] res4d_branch2b -> res4d_branch2b
I0617 13:06:22.925770 15212 net.cpp:150] Setting up res4d_branch2b
I0617 13:06:22.927407 15212 net.cpp:157] Top shape: 1 256 14 14 (50176)
I0617 13:06:22.927448 15212 net.cpp:165] Memory required for data: 199901324
I0617 13:06:22.927491 15212 layer_factory.hpp:77] Creating layer bn4d_branch2b
I0617 13:06:22.927534 15212 net.cpp:100] Creating Layer bn4d_branch2b
I0617 13:06:22.927575 15212 net.cpp:444] bn4d_branch2b <- res4d_branch2b
I0617 13:06:22.927613 15212 net.cpp:405] bn4d_branch2b -> res4d_branch2b (in-place)
I0617 13:06:22.927841 15212 net.cpp:150] Setting up bn4d_branch2b
I0617 13:06:22.928079 15212 net.cpp:157] Top shape: 1 256 14 14 (50176)
I0617 13:06:22.928125 15212 net.cpp:165] Memory required for data: 200102028
I0617 13:06:22.928165 15212 layer_factory.hpp:77] Creating layer scale4d_branch2b
I0617 13:06:22.928217 15212 net.cpp:100] Creating Layer scale4d_branch2b
I0617 13:06:22.928259 15212 net.cpp:444] scale4d_branch2b <- res4d_branch2b
I0617 13:06:22.928302 15212 net.cpp:405] scale4d_branch2b -> res4d_branch2b (in-place)
I0617 13:06:22.928385 15212 layer_factory.hpp:77] Creating layer scale4d_branch2b
I0617 13:06:22.928587 15212 net.cpp:150] Setting up scale4d_branch2b
I0617 13:06:22.928740 15212 net.cpp:157] Top shape: 1 256 14 14 (50176)
I0617 13:06:22.928773 15212 net.cpp:165] Memory required for data: 200302732
I0617 13:06:22.928812 15212 layer_factory.hpp:77] Creating layer res4d_branch2b_relu
I0617 13:06:22.928856 15212 net.cpp:100] Creating Layer res4d_branch2b_relu
I0617 13:06:22.928897 15212 net.cpp:444] res4d_branch2b_relu <- res4d_branch2b
I0617 13:06:22.928939 15212 net.cpp:405] res4d_branch2b_relu -> res4d_branch2b (in-place)
I0617 13:06:22.928983 15212 net.cpp:150] Setting up res4d_branch2b_relu
I0617 13:06:22.929033 15212 net.cpp:157] Top shape: 1 256 14 14 (50176)
I0617 13:06:22.929075 15212 net.cpp:165] Memory required for data: 200503436
I0617 13:06:22.929110 15212 layer_factory.hpp:77] Creating layer res4d_branch2c
I0617 13:06:22.929157 15212 net.cpp:100] Creating Layer res4d_branch2c
I0617 13:06:22.929203 15212 net.cpp:444] res4d_branch2c <- res4d_branch2b
I0617 13:06:22.929240 15212 net.cpp:418] res4d_branch2c -> res4d_branch2c
I0617 13:06:22.930227 15212 net.cpp:150] Setting up res4d_branch2c
I0617 13:06:22.931234 15212 net.cpp:157] Top shape: 1 1024 14 14 (200704)
I0617 13:06:22.931277 15212 net.cpp:165] Memory required for data: 201306252
I0617 13:06:22.931314 15212 layer_factory.hpp:77] Creating layer bn4d_branch2c
I0617 13:06:22.931370 15212 net.cpp:100] Creating Layer bn4d_branch2c
I0617 13:06:22.931411 15212 net.cpp:444] bn4d_branch2c <- res4d_branch2c
I0617 13:06:22.931453 15212 net.cpp:405] bn4d_branch2c -> res4d_branch2c (in-place)
I0617 13:06:22.931694 15212 net.cpp:150] Setting up bn4d_branch2c
I0617 13:06:22.931934 15212 net.cpp:157] Top shape: 1 1024 14 14 (200704)
I0617 13:06:22.931962 15212 net.cpp:165] Memory required for data: 202109068
I0617 13:06:22.932008 15212 layer_factory.hpp:77] Creating layer scale4d_branch2c
I0617 13:06:22.932054 15212 net.cpp:100] Creating Layer scale4d_branch2c
I0617 13:06:22.932102 15212 net.cpp:444] scale4d_branch2c <- res4d_branch2c
I0617 13:06:22.932145 15212 net.cpp:405] scale4d_branch2c -> res4d_branch2c (in-place)
I0617 13:06:22.932229 15212 layer_factory.hpp:77] Creating layer scale4d_branch2c
I0617 13:06:22.932437 15212 net.cpp:150] Setting up scale4d_branch2c
I0617 13:06:22.932605 15212 net.cpp:157] Top shape: 1 1024 14 14 (200704)
I0617 13:06:22.932644 15212 net.cpp:165] Memory required for data: 202911884
I0617 13:06:22.932689 15212 layer_factory.hpp:77] Creating layer res4d
I0617 13:06:22.932734 15212 net.cpp:100] Creating Layer res4d
I0617 13:06:22.932775 15212 net.cpp:444] res4d <- res4c_res4c_relu_0_split_1
I0617 13:06:22.932817 15212 net.cpp:444] res4d <- res4d_branch2c
I0617 13:06:22.932859 15212 net.cpp:418] res4d -> res4d
I0617 13:06:22.932927 15212 net.cpp:150] Setting up res4d
I0617 13:06:22.932991 15212 net.cpp:157] Top shape: 1 1024 14 14 (200704)
I0617 13:06:22.933023 15212 net.cpp:165] Memory required for data: 203714700
I0617 13:06:22.933058 15212 layer_factory.hpp:77] Creating layer res4d_relu
I0617 13:06:22.933099 15212 net.cpp:100] Creating Layer res4d_relu
I0617 13:06:22.933140 15212 net.cpp:444] res4d_relu <- res4d
I0617 13:06:22.933178 15212 net.cpp:405] res4d_relu -> res4d (in-place)
I0617 13:06:22.933223 15212 net.cpp:150] Setting up res4d_relu
I0617 13:06:22.933271 15212 net.cpp:157] Top shape: 1 1024 14 14 (200704)
I0617 13:06:22.933305 15212 net.cpp:165] Memory required for data: 204517516
I0617 13:06:22.933344 15212 layer_factory.hpp:77] Creating layer res4d_res4d_relu_0_split
I0617 13:06:22.933380 15212 net.cpp:100] Creating Layer res4d_res4d_relu_0_split
I0617 13:06:22.933419 15212 net.cpp:444] res4d_res4d_relu_0_split <- res4d
I0617 13:06:22.933460 15212 net.cpp:418] res4d_res4d_relu_0_split -> res4d_res4d_relu_0_split_0
I0617 13:06:22.933498 15212 net.cpp:418] res4d_res4d_relu_0_split -> res4d_res4d_relu_0_split_1
I0617 13:06:22.933583 15212 net.cpp:150] Setting up res4d_res4d_relu_0_split
I0617 13:06:22.933682 15212 net.cpp:157] Top shape: 1 1024 14 14 (200704)
I0617 13:06:22.933706 15212 net.cpp:157] Top shape: 1 1024 14 14 (200704)
I0617 13:06:22.933740 15212 net.cpp:165] Memory required for data: 206123148
I0617 13:06:22.933773 15212 layer_factory.hpp:77] Creating layer res4e_branch2a
I0617 13:06:22.933817 15212 net.cpp:100] Creating Layer res4e_branch2a
I0617 13:06:22.933857 15212 net.cpp:444] res4e_branch2a <- res4d_res4d_relu_0_split_0
I0617 13:06:22.933902 15212 net.cpp:418] res4e_branch2a -> res4e_branch2a
I0617 13:06:22.934854 15212 net.cpp:150] Setting up res4e_branch2a
I0617 13:06:22.935818 15212 net.cpp:157] Top shape: 1 256 14 14 (50176)
I0617 13:06:22.935859 15212 net.cpp:165] Memory required for data: 206323852
I0617 13:06:22.935911 15212 layer_factory.hpp:77] Creating layer bn4e_branch2a
I0617 13:06:22.935956 15212 net.cpp:100] Creating Layer bn4e_branch2a
I0617 13:06:22.935998 15212 net.cpp:444] bn4e_branch2a <- res4e_branch2a
I0617 13:06:22.936043 15212 net.cpp:405] bn4e_branch2a -> res4e_branch2a (in-place)
I0617 13:06:22.936280 15212 net.cpp:150] Setting up bn4e_branch2a
I0617 13:06:22.936524 15212 net.cpp:157] Top shape: 1 256 14 14 (50176)
I0617 13:06:22.936565 15212 net.cpp:165] Memory required for data: 206524556
I0617 13:06:22.936610 15212 layer_factory.hpp:77] Creating layer scale4e_branch2a
I0617 13:06:22.936661 15212 net.cpp:100] Creating Layer scale4e_branch2a
I0617 13:06:22.936709 15212 net.cpp:444] scale4e_branch2a <- res4e_branch2a
I0617 13:06:22.936744 15212 net.cpp:405] scale4e_branch2a -> res4e_branch2a (in-place)
I0617 13:06:22.936818 15212 layer_factory.hpp:77] Creating layer scale4e_branch2a
I0617 13:06:22.937028 15212 net.cpp:150] Setting up scale4e_branch2a
I0617 13:06:22.937191 15212 net.cpp:157] Top shape: 1 256 14 14 (50176)
I0617 13:06:22.937230 15212 net.cpp:165] Memory required for data: 206725260
I0617 13:06:22.937269 15212 layer_factory.hpp:77] Creating layer res4e_branch2a_relu
I0617 13:06:22.937321 15212 net.cpp:100] Creating Layer res4e_branch2a_relu
I0617 13:06:22.937363 15212 net.cpp:444] res4e_branch2a_relu <- res4e_branch2a
I0617 13:06:22.937405 15212 net.cpp:405] res4e_branch2a_relu -> res4e_branch2a (in-place)
I0617 13:06:22.937449 15212 net.cpp:150] Setting up res4e_branch2a_relu
I0617 13:06:22.937491 15212 net.cpp:157] Top shape: 1 256 14 14 (50176)
I0617 13:06:22.937532 15212 net.cpp:165] Memory required for data: 206925964
I0617 13:06:22.937567 15212 layer_factory.hpp:77] Creating layer res4e_branch2b
I0617 13:06:22.937614 15212 net.cpp:100] Creating Layer res4e_branch2b
I0617 13:06:22.937685 15212 net.cpp:444] res4e_branch2b <- res4e_branch2a
I0617 13:06:22.937713 15212 net.cpp:418] res4e_branch2b -> res4e_branch2b
I0617 13:06:22.939254 15212 net.cpp:150] Setting up res4e_branch2b
I0617 13:06:22.940827 15212 net.cpp:157] Top shape: 1 256 14 14 (50176)
I0617 13:06:22.940870 15212 net.cpp:165] Memory required for data: 207126668
I0617 13:06:22.940912 15212 layer_factory.hpp:77] Creating layer bn4e_branch2b
I0617 13:06:22.940958 15212 net.cpp:100] Creating Layer bn4e_branch2b
I0617 13:06:22.940997 15212 net.cpp:444] bn4e_branch2b <- res4e_branch2b
I0617 13:06:22.941040 15212 net.cpp:405] bn4e_branch2b -> res4e_branch2b (in-place)
I0617 13:06:22.941270 15212 net.cpp:150] Setting up bn4e_branch2b
I0617 13:06:22.941519 15212 net.cpp:157] Top shape: 1 256 14 14 (50176)
I0617 13:06:22.941560 15212 net.cpp:165] Memory required for data: 207327372
I0617 13:06:22.941598 15212 layer_factory.hpp:77] Creating layer scale4e_branch2b
I0617 13:06:22.941694 15212 net.cpp:100] Creating Layer scale4e_branch2b
I0617 13:06:22.941721 15212 net.cpp:444] scale4e_branch2b <- res4e_branch2b
I0617 13:06:22.941745 15212 net.cpp:405] scale4e_branch2b -> res4e_branch2b (in-place)
I0617 13:06:22.941823 15212 layer_factory.hpp:77] Creating layer scale4e_branch2b
I0617 13:06:22.942023 15212 net.cpp:150] Setting up scale4e_branch2b
I0617 13:06:22.942183 15212 net.cpp:157] Top shape: 1 256 14 14 (50176)
I0617 13:06:22.942224 15212 net.cpp:165] Memory required for data: 207528076
I0617 13:06:22.942266 15212 layer_factory.hpp:77] Creating layer res4e_branch2b_relu
I0617 13:06:22.942312 15212 net.cpp:100] Creating Layer res4e_branch2b_relu
I0617 13:06:22.942353 15212 net.cpp:444] res4e_branch2b_relu <- res4e_branch2b
I0617 13:06:22.942392 15212 net.cpp:405] res4e_branch2b_relu -> res4e_branch2b (in-place)
I0617 13:06:22.942436 15212 net.cpp:150] Setting up res4e_branch2b_relu
I0617 13:06:22.942478 15212 net.cpp:157] Top shape: 1 256 14 14 (50176)
I0617 13:06:22.942518 15212 net.cpp:165] Memory required for data: 207728780
I0617 13:06:22.942543 15212 layer_factory.hpp:77] Creating layer res4e_branch2c
I0617 13:06:22.942579 15212 net.cpp:100] Creating Layer res4e_branch2c
I0617 13:06:22.942625 15212 net.cpp:444] res4e_branch2c <- res4e_branch2b
I0617 13:06:22.942675 15212 net.cpp:418] res4e_branch2c -> res4e_branch2c
I0617 13:06:22.943656 15212 net.cpp:150] Setting up res4e_branch2c
I0617 13:06:22.944651 15212 net.cpp:157] Top shape: 1 1024 14 14 (200704)
I0617 13:06:22.944692 15212 net.cpp:165] Memory required for data: 208531596
I0617 13:06:22.944735 15212 layer_factory.hpp:77] Creating layer bn4e_branch2c
I0617 13:06:22.944782 15212 net.cpp:100] Creating Layer bn4e_branch2c
I0617 13:06:22.944823 15212 net.cpp:444] bn4e_branch2c <- res4e_branch2c
I0617 13:06:22.944865 15212 net.cpp:405] bn4e_branch2c -> res4e_branch2c (in-place)
I0617 13:06:22.945113 15212 net.cpp:150] Setting up bn4e_branch2c
I0617 13:06:22.945365 15212 net.cpp:157] Top shape: 1 1024 14 14 (200704)
I0617 13:06:22.945406 15212 net.cpp:165] Memory required for data: 209334412
I0617 13:06:22.945451 15212 layer_factory.hpp:77] Creating layer scale4e_branch2c
I0617 13:06:22.945499 15212 net.cpp:100] Creating Layer scale4e_branch2c
I0617 13:06:22.945547 15212 net.cpp:444] scale4e_branch2c <- res4e_branch2c
I0617 13:06:22.945590 15212 net.cpp:405] scale4e_branch2c -> res4e_branch2c (in-place)
I0617 13:06:22.945718 15212 layer_factory.hpp:77] Creating layer scale4e_branch2c
I0617 13:06:22.945982 15212 net.cpp:150] Setting up scale4e_branch2c
I0617 13:06:22.946156 15212 net.cpp:157] Top shape: 1 1024 14 14 (200704)
I0617 13:06:22.946195 15212 net.cpp:165] Memory required for data: 210137228
I0617 13:06:22.946233 15212 layer_factory.hpp:77] Creating layer res4e
I0617 13:06:22.946279 15212 net.cpp:100] Creating Layer res4e
I0617 13:06:22.946326 15212 net.cpp:444] res4e <- res4d_res4d_relu_0_split_1
I0617 13:06:22.946367 15212 net.cpp:444] res4e <- res4e_branch2c
I0617 13:06:22.946403 15212 net.cpp:418] res4e -> res4e
I0617 13:06:22.946471 15212 net.cpp:150] Setting up res4e
I0617 13:06:22.946547 15212 net.cpp:157] Top shape: 1 1024 14 14 (200704)
I0617 13:06:22.946586 15212 net.cpp:165] Memory required for data: 210940044
I0617 13:06:22.946620 15212 layer_factory.hpp:77] Creating layer res4e_relu
I0617 13:06:22.946662 15212 net.cpp:100] Creating Layer res4e_relu
I0617 13:06:22.946702 15212 net.cpp:444] res4e_relu <- res4e
I0617 13:06:22.946740 15212 net.cpp:405] res4e_relu -> res4e (in-place)
I0617 13:06:22.946784 15212 net.cpp:150] Setting up res4e_relu
I0617 13:06:22.946820 15212 net.cpp:157] Top shape: 1 1024 14 14 (200704)
I0617 13:06:22.946853 15212 net.cpp:165] Memory required for data: 211742860
I0617 13:06:22.946892 15212 layer_factory.hpp:77] Creating layer res4e_res4e_relu_0_split
I0617 13:06:22.946929 15212 net.cpp:100] Creating Layer res4e_res4e_relu_0_split
I0617 13:06:22.946969 15212 net.cpp:444] res4e_res4e_relu_0_split <- res4e
I0617 13:06:22.947010 15212 net.cpp:418] res4e_res4e_relu_0_split -> res4e_res4e_relu_0_split_0
I0617 13:06:22.947053 15212 net.cpp:418] res4e_res4e_relu_0_split -> res4e_res4e_relu_0_split_1
I0617 13:06:22.947134 15212 net.cpp:150] Setting up res4e_res4e_relu_0_split
I0617 13:06:22.947214 15212 net.cpp:157] Top shape: 1 1024 14 14 (200704)
I0617 13:06:22.947255 15212 net.cpp:157] Top shape: 1 1024 14 14 (200704)
I0617 13:06:22.947294 15212 net.cpp:165] Memory required for data: 213348492
I0617 13:06:22.947329 15212 layer_factory.hpp:77] Creating layer res4f_branch2a
I0617 13:06:22.947369 15212 net.cpp:100] Creating Layer res4f_branch2a
I0617 13:06:22.947410 15212 net.cpp:444] res4f_branch2a <- res4e_res4e_relu_0_split_0
I0617 13:06:22.947448 15212 net.cpp:418] res4f_branch2a -> res4f_branch2a
I0617 13:06:22.948426 15212 net.cpp:150] Setting up res4f_branch2a
I0617 13:06:22.949409 15212 net.cpp:157] Top shape: 1 256 14 14 (50176)
I0617 13:06:22.949450 15212 net.cpp:165] Memory required for data: 213549196
I0617 13:06:22.949491 15212 layer_factory.hpp:77] Creating layer bn4f_branch2a
I0617 13:06:22.949528 15212 net.cpp:100] Creating Layer bn4f_branch2a
I0617 13:06:22.949569 15212 net.cpp:444] bn4f_branch2a <- res4f_branch2a
I0617 13:06:22.949611 15212 net.cpp:405] bn4f_branch2a -> res4f_branch2a (in-place)
I0617 13:06:22.949895 15212 net.cpp:150] Setting up bn4f_branch2a
I0617 13:06:22.950111 15212 net.cpp:157] Top shape: 1 256 14 14 (50176)
I0617 13:06:22.950152 15212 net.cpp:165] Memory required for data: 213749900
I0617 13:06:22.950197 15212 layer_factory.hpp:77] Creating layer scale4f_branch2a
I0617 13:06:22.950245 15212 net.cpp:100] Creating Layer scale4f_branch2a
I0617 13:06:22.950292 15212 net.cpp:444] scale4f_branch2a <- res4f_branch2a
I0617 13:06:22.950335 15212 net.cpp:405] scale4f_branch2a -> res4f_branch2a (in-place)
I0617 13:06:22.950422 15212 layer_factory.hpp:77] Creating layer scale4f_branch2a
I0617 13:06:22.950630 15212 net.cpp:150] Setting up scale4f_branch2a
I0617 13:06:22.950791 15212 net.cpp:157] Top shape: 1 256 14 14 (50176)
I0617 13:06:22.950832 15212 net.cpp:165] Memory required for data: 213950604
I0617 13:06:22.950876 15212 layer_factory.hpp:77] Creating layer res4f_branch2a_relu
I0617 13:06:22.950922 15212 net.cpp:100] Creating Layer res4f_branch2a_relu
I0617 13:06:22.950961 15212 net.cpp:444] res4f_branch2a_relu <- res4f_branch2a
I0617 13:06:22.951002 15212 net.cpp:405] res4f_branch2a_relu -> res4f_branch2a (in-place)
I0617 13:06:22.951038 15212 net.cpp:150] Setting up res4f_branch2a_relu
I0617 13:06:22.951076 15212 net.cpp:157] Top shape: 1 256 14 14 (50176)
I0617 13:06:22.951108 15212 net.cpp:165] Memory required for data: 214151308
I0617 13:06:22.951148 15212 layer_factory.hpp:77] Creating layer res4f_branch2b
I0617 13:06:22.951189 15212 net.cpp:100] Creating Layer res4f_branch2b
I0617 13:06:22.951234 15212 net.cpp:444] res4f_branch2b <- res4f_branch2a
I0617 13:06:22.951272 15212 net.cpp:418] res4f_branch2b -> res4f_branch2b
I0617 13:06:22.953032 15212 net.cpp:150] Setting up res4f_branch2b
I0617 13:06:22.954818 15212 net.cpp:157] Top shape: 1 256 14 14 (50176)
I0617 13:06:22.954887 15212 net.cpp:165] Memory required for data: 214352012
I0617 13:06:22.954929 15212 layer_factory.hpp:77] Creating layer bn4f_branch2b
I0617 13:06:22.954985 15212 net.cpp:100] Creating Layer bn4f_branch2b
I0617 13:06:22.955035 15212 net.cpp:444] bn4f_branch2b <- res4f_branch2b
I0617 13:06:22.955080 15212 net.cpp:405] bn4f_branch2b -> res4f_branch2b (in-place)
I0617 13:06:22.955359 15212 net.cpp:150] Setting up bn4f_branch2b
I0617 13:06:22.955642 15212 net.cpp:157] Top shape: 1 256 14 14 (50176)
I0617 13:06:22.955683 15212 net.cpp:165] Memory required for data: 214552716
I0617 13:06:22.955724 15212 layer_factory.hpp:77] Creating layer scale4f_branch2b
I0617 13:06:22.955780 15212 net.cpp:100] Creating Layer scale4f_branch2b
I0617 13:06:22.955827 15212 net.cpp:444] scale4f_branch2b <- res4f_branch2b
I0617 13:06:22.955863 15212 net.cpp:405] scale4f_branch2b -> res4f_branch2b (in-place)
I0617 13:06:22.955955 15212 layer_factory.hpp:77] Creating layer scale4f_branch2b
I0617 13:06:22.956177 15212 net.cpp:150] Setting up scale4f_branch2b
I0617 13:06:22.956351 15212 net.cpp:157] Top shape: 1 256 14 14 (50176)
I0617 13:06:22.956392 15212 net.cpp:165] Memory required for data: 214753420
I0617 13:06:22.956429 15212 layer_factory.hpp:77] Creating layer res4f_branch2b_relu
I0617 13:06:22.956481 15212 net.cpp:100] Creating Layer res4f_branch2b_relu
I0617 13:06:22.956523 15212 net.cpp:444] res4f_branch2b_relu <- res4f_branch2b
I0617 13:06:22.956565 15212 net.cpp:405] res4f_branch2b_relu -> res4f_branch2b (in-place)
I0617 13:06:22.956609 15212 net.cpp:150] Setting up res4f_branch2b_relu
I0617 13:06:22.956651 15212 net.cpp:157] Top shape: 1 256 14 14 (50176)
I0617 13:06:22.956686 15212 net.cpp:165] Memory required for data: 214954124
I0617 13:06:22.956725 15212 layer_factory.hpp:77] Creating layer res4f_branch2c
I0617 13:06:22.956773 15212 net.cpp:100] Creating Layer res4f_branch2c
I0617 13:06:22.956821 15212 net.cpp:444] res4f_branch2c <- res4f_branch2b
I0617 13:06:22.956857 15212 net.cpp:418] res4f_branch2c -> res4f_branch2c
I0617 13:06:22.958009 15212 net.cpp:150] Setting up res4f_branch2c
I0617 13:06:22.959192 15212 net.cpp:157] Top shape: 1 1024 14 14 (200704)
I0617 13:06:22.959233 15212 net.cpp:165] Memory required for data: 215756940
I0617 13:06:22.959280 15212 layer_factory.hpp:77] Creating layer bn4f_branch2c
I0617 13:06:22.959342 15212 net.cpp:100] Creating Layer bn4f_branch2c
I0617 13:06:22.959393 15212 net.cpp:444] bn4f_branch2c <- res4f_branch2c
I0617 13:06:22.959435 15212 net.cpp:405] bn4f_branch2c -> res4f_branch2c (in-place)
I0617 13:06:22.959702 15212 net.cpp:150] Setting up bn4f_branch2c
I0617 13:06:22.959982 15212 net.cpp:157] Top shape: 1 1024 14 14 (200704)
I0617 13:06:22.960023 15212 net.cpp:165] Memory required for data: 216559756
I0617 13:06:22.960078 15212 layer_factory.hpp:77] Creating layer scale4f_branch2c
I0617 13:06:22.960150 15212 net.cpp:100] Creating Layer scale4f_branch2c
I0617 13:06:22.960192 15212 net.cpp:444] scale4f_branch2c <- res4f_branch2c
I0617 13:06:22.960235 15212 net.cpp:405] scale4f_branch2c -> res4f_branch2c (in-place)
I0617 13:06:22.960327 15212 layer_factory.hpp:77] Creating layer scale4f_branch2c
I0617 13:06:22.960558 15212 net.cpp:150] Setting up scale4f_branch2c
I0617 13:06:22.960737 15212 net.cpp:157] Top shape: 1 1024 14 14 (200704)
I0617 13:06:22.960778 15212 net.cpp:165] Memory required for data: 217362572
I0617 13:06:22.960821 15212 layer_factory.hpp:77] Creating layer res4f
I0617 13:06:22.960866 15212 net.cpp:100] Creating Layer res4f
I0617 13:06:22.960908 15212 net.cpp:444] res4f <- res4e_res4e_relu_0_split_1
I0617 13:06:22.960949 15212 net.cpp:444] res4f <- res4f_branch2c
I0617 13:06:22.960991 15212 net.cpp:418] res4f -> res4f
I0617 13:06:22.961061 15212 net.cpp:150] Setting up res4f
I0617 13:06:22.961138 15212 net.cpp:157] Top shape: 1 1024 14 14 (200704)
I0617 13:06:22.961176 15212 net.cpp:165] Memory required for data: 218165388
I0617 13:06:22.961202 15212 layer_factory.hpp:77] Creating layer res4f_relu
I0617 13:06:22.961233 15212 net.cpp:100] Creating Layer res4f_relu
I0617 13:06:22.961273 15212 net.cpp:444] res4f_relu <- res4f
I0617 13:06:22.961318 15212 net.cpp:405] res4f_relu -> res4f (in-place)
I0617 13:06:22.961360 15212 net.cpp:150] Setting up res4f_relu
I0617 13:06:22.961402 15212 net.cpp:157] Top shape: 1 1024 14 14 (200704)
I0617 13:06:22.961442 15212 net.cpp:165] Memory required for data: 218968204
I0617 13:06:22.961477 15212 layer_factory.hpp:77] Creating layer res4f_res4f_relu_0_split
I0617 13:06:22.961519 15212 net.cpp:100] Creating Layer res4f_res4f_relu_0_split
I0617 13:06:22.961558 15212 net.cpp:444] res4f_res4f_relu_0_split <- res4f
I0617 13:06:22.961594 15212 net.cpp:418] res4f_res4f_relu_0_split -> res4f_res4f_relu_0_split_0
I0617 13:06:22.961681 15212 net.cpp:418] res4f_res4f_relu_0_split -> res4f_res4f_relu_0_split_1
I0617 13:06:22.961779 15212 net.cpp:418] res4f_res4f_relu_0_split -> res4f_res4f_relu_0_split_2
I0617 13:06:22.961829 15212 net.cpp:418] res4f_res4f_relu_0_split -> res4f_res4f_relu_0_split_3
I0617 13:06:22.961935 15212 net.cpp:150] Setting up res4f_res4f_relu_0_split
I0617 13:06:22.962047 15212 net.cpp:157] Top shape: 1 1024 14 14 (200704)
I0617 13:06:22.962090 15212 net.cpp:157] Top shape: 1 1024 14 14 (200704)
I0617 13:06:22.962131 15212 net.cpp:157] Top shape: 1 1024 14 14 (200704)
I0617 13:06:22.962165 15212 net.cpp:157] Top shape: 1 1024 14 14 (200704)
I0617 13:06:22.962203 15212 net.cpp:165] Memory required for data: 222179468
I0617 13:06:22.962237 15212 layer_factory.hpp:77] Creating layer res5a_branch1
I0617 13:06:22.962286 15212 net.cpp:100] Creating Layer res5a_branch1
I0617 13:06:22.962333 15212 net.cpp:444] res5a_branch1 <- res4f_res4f_relu_0_split_0
I0617 13:06:22.962373 15212 net.cpp:418] res5a_branch1 -> res5a_branch1
I0617 13:06:22.967803 15212 net.cpp:150] Setting up res5a_branch1
I0617 13:06:22.973322 15212 net.cpp:157] Top shape: 1 2048 14 14 (401408)
I0617 13:06:22.973417 15212 net.cpp:165] Memory required for data: 223785100
I0617 13:06:22.973467 15212 layer_factory.hpp:77] Creating layer bn5a_branch1
I0617 13:06:22.973533 15212 net.cpp:100] Creating Layer bn5a_branch1
I0617 13:06:22.973598 15212 net.cpp:444] bn5a_branch1 <- res5a_branch1
I0617 13:06:22.973695 15212 net.cpp:405] bn5a_branch1 -> res5a_branch1 (in-place)
I0617 13:06:22.974068 15212 net.cpp:150] Setting up bn5a_branch1
I0617 13:06:22.974402 15212 net.cpp:157] Top shape: 1 2048 14 14 (401408)
I0617 13:06:22.974442 15212 net.cpp:165] Memory required for data: 225390732
I0617 13:06:22.974481 15212 layer_factory.hpp:77] Creating layer scale5a_branch1
I0617 13:06:22.974536 15212 net.cpp:100] Creating Layer scale5a_branch1
I0617 13:06:22.974584 15212 net.cpp:444] scale5a_branch1 <- res5a_branch1
I0617 13:06:22.974627 15212 net.cpp:405] scale5a_branch1 -> res5a_branch1 (in-place)
I0617 13:06:22.974711 15212 layer_factory.hpp:77] Creating layer scale5a_branch1
I0617 13:06:22.974925 15212 net.cpp:150] Setting up scale5a_branch1
I0617 13:06:22.975103 15212 net.cpp:157] Top shape: 1 2048 14 14 (401408)
I0617 13:06:22.975142 15212 net.cpp:165] Memory required for data: 226996364
I0617 13:06:22.975180 15212 layer_factory.hpp:77] Creating layer res5a_branch2a
I0617 13:06:22.975230 15212 net.cpp:100] Creating Layer res5a_branch2a
I0617 13:06:22.975278 15212 net.cpp:444] res5a_branch2a <- res4f_res4f_relu_0_split_1
I0617 13:06:22.975322 15212 net.cpp:418] res5a_branch2a -> res5a_branch2a
I0617 13:06:22.976920 15212 net.cpp:150] Setting up res5a_branch2a
I0617 13:06:22.978529 15212 net.cpp:157] Top shape: 1 512 14 14 (100352)
I0617 13:06:22.978559 15212 net.cpp:165] Memory required for data: 227397772
I0617 13:06:22.978581 15212 layer_factory.hpp:77] Creating layer bn5a_branch2a
I0617 13:06:22.978611 15212 net.cpp:100] Creating Layer bn5a_branch2a
I0617 13:06:22.978638 15212 net.cpp:444] bn5a_branch2a <- res5a_branch2a
I0617 13:06:22.978663 15212 net.cpp:405] bn5a_branch2a -> res5a_branch2a (in-place)
I0617 13:06:22.978904 15212 net.cpp:150] Setting up bn5a_branch2a
I0617 13:06:22.979151 15212 net.cpp:157] Top shape: 1 512 14 14 (100352)
I0617 13:06:22.979176 15212 net.cpp:165] Memory required for data: 227799180
I0617 13:06:22.979202 15212 layer_factory.hpp:77] Creating layer scale5a_branch2a
I0617 13:06:22.979240 15212 net.cpp:100] Creating Layer scale5a_branch2a
I0617 13:06:22.979277 15212 net.cpp:444] scale5a_branch2a <- res5a_branch2a
I0617 13:06:22.979305 15212 net.cpp:405] scale5a_branch2a -> res5a_branch2a (in-place)
I0617 13:06:22.979374 15212 layer_factory.hpp:77] Creating layer scale5a_branch2a
I0617 13:06:22.979563 15212 net.cpp:150] Setting up scale5a_branch2a
I0617 13:06:22.979722 15212 net.cpp:157] Top shape: 1 512 14 14 (100352)
I0617 13:06:22.979742 15212 net.cpp:165] Memory required for data: 228200588
I0617 13:06:22.979765 15212 layer_factory.hpp:77] Creating layer res5a_branch2a_relu
I0617 13:06:22.979796 15212 net.cpp:100] Creating Layer res5a_branch2a_relu
I0617 13:06:22.979825 15212 net.cpp:444] res5a_branch2a_relu <- res5a_branch2a
I0617 13:06:22.979851 15212 net.cpp:405] res5a_branch2a_relu -> res5a_branch2a (in-place)
I0617 13:06:22.979876 15212 net.cpp:150] Setting up res5a_branch2a_relu
I0617 13:06:22.979903 15212 net.cpp:157] Top shape: 1 512 14 14 (100352)
I0617 13:06:22.979923 15212 net.cpp:165] Memory required for data: 228601996
I0617 13:06:22.979943 15212 layer_factory.hpp:77] Creating layer res5a_branch2b
I0617 13:06:22.979977 15212 net.cpp:100] Creating Layer res5a_branch2b
I0617 13:06:22.980005 15212 net.cpp:444] res5a_branch2b <- res5a_branch2a
I0617 13:06:22.980034 15212 net.cpp:418] res5a_branch2b -> res5a_branch2b
I0617 13:06:22.988842 15212 net.cpp:150] Setting up res5a_branch2b
I0617 13:06:22.990684 15212 net.cpp:157] Top shape: 1 512 14 14 (100352)
I0617 13:06:22.990716 15212 net.cpp:165] Memory required for data: 229003404
I0617 13:06:22.990747 15212 layer_factory.hpp:77] Creating layer bn5a_branch2b
I0617 13:06:22.990782 15212 net.cpp:100] Creating Layer bn5a_branch2b
I0617 13:06:22.990810 15212 net.cpp:444] bn5a_branch2b <- res5a_branch2b
I0617 13:06:22.990836 15212 net.cpp:405] bn5a_branch2b -> res5a_branch2b (in-place)
I0617 13:06:22.991086 15212 net.cpp:150] Setting up bn5a_branch2b
I0617 13:06:22.991333 15212 net.cpp:157] Top shape: 1 512 14 14 (100352)
I0617 13:06:22.991353 15212 net.cpp:165] Memory required for data: 229404812
I0617 13:06:22.991384 15212 layer_factory.hpp:77] Creating layer scale5a_branch2b
I0617 13:06:22.991426 15212 net.cpp:100] Creating Layer scale5a_branch2b
I0617 13:06:22.991456 15212 net.cpp:444] scale5a_branch2b <- res5a_branch2b
I0617 13:06:22.991478 15212 net.cpp:405] scale5a_branch2b -> res5a_branch2b (in-place)
I0617 13:06:22.991549 15212 layer_factory.hpp:77] Creating layer scale5a_branch2b
I0617 13:06:22.991747 15212 net.cpp:150] Setting up scale5a_branch2b
I0617 13:06:22.991900 15212 net.cpp:157] Top shape: 1 512 14 14 (100352)
I0617 13:06:22.991926 15212 net.cpp:165] Memory required for data: 229806220
I0617 13:06:22.991950 15212 layer_factory.hpp:77] Creating layer res5a_branch2b_relu
I0617 13:06:22.991981 15212 net.cpp:100] Creating Layer res5a_branch2b_relu
I0617 13:06:22.992009 15212 net.cpp:444] res5a_branch2b_relu <- res5a_branch2b
I0617 13:06:22.992038 15212 net.cpp:405] res5a_branch2b_relu -> res5a_branch2b (in-place)
I0617 13:06:22.992061 15212 net.cpp:150] Setting up res5a_branch2b_relu
I0617 13:06:22.992089 15212 net.cpp:157] Top shape: 1 512 14 14 (100352)
I0617 13:06:22.992108 15212 net.cpp:165] Memory required for data: 230207628
I0617 13:06:22.992135 15212 layer_factory.hpp:77] Creating layer res5a_branch2c
I0617 13:06:22.992161 15212 net.cpp:100] Creating Layer res5a_branch2c
I0617 13:06:22.992189 15212 net.cpp:444] res5a_branch2c <- res5a_branch2b
I0617 13:06:22.992213 15212 net.cpp:418] res5a_branch2c -> res5a_branch2c
I0617 13:06:22.996608 15212 net.cpp:150] Setting up res5a_branch2c
I0617 13:06:22.997465 15212 net.cpp:157] Top shape: 1 2048 14 14 (401408)
I0617 13:06:22.997493 15212 net.cpp:165] Memory required for data: 231813260
I0617 13:06:22.997522 15212 layer_factory.hpp:77] Creating layer bn5a_branch2c
I0617 13:06:22.997548 15212 net.cpp:100] Creating Layer bn5a_branch2c
I0617 13:06:22.997576 15212 net.cpp:444] bn5a_branch2c <- res5a_branch2c
I0617 13:06:22.997607 15212 net.cpp:405] bn5a_branch2c -> res5a_branch2c (in-place)
I0617 13:06:22.997895 15212 net.cpp:150] Setting up bn5a_branch2c
I0617 13:06:22.998184 15212 net.cpp:157] Top shape: 1 2048 14 14 (401408)
I0617 13:06:22.998205 15212 net.cpp:165] Memory required for data: 233418892
I0617 13:06:22.998231 15212 layer_factory.hpp:77] Creating layer scale5a_branch2c
I0617 13:06:22.998267 15212 net.cpp:100] Creating Layer scale5a_branch2c
I0617 13:06:22.998294 15212 net.cpp:444] scale5a_branch2c <- res5a_branch2c
I0617 13:06:22.998317 15212 net.cpp:405] scale5a_branch2c -> res5a_branch2c (in-place)
I0617 13:06:22.998383 15212 layer_factory.hpp:77] Creating layer scale5a_branch2c
I0617 13:06:22.998582 15212 net.cpp:150] Setting up scale5a_branch2c
…
I0617 16:27:56.838138 17230 net.cpp:157] Top shape: 1 512 14 14 (100352)
I0617 16:27:56.838142 17230 net.cpp:157] Top shape: 1 512 14 14 (100352)
I0617 16:27:56.838147 17230 net.cpp:165] Memory required for data: 300933836
I0617 16:27:56.838152 17230 layer_factory.hpp:77] Creating layer res_neg_mask1c_branch1
I0617 16:27:56.838171 17230 net.cpp:100] Creating Layer res_neg_mask1c_branch1
I0617 16:27:56.838178 17230 net.cpp:444] res_neg_mask1c_branch1 <- neg_mask_deconv_1_neg_mask_deconv_1_relu_0_split_0
I0617 16:27:56.838194 17230 net.cpp:418] res_neg_mask1c_branch1 -> res_neg_mask1c_branch1
I0617 16:27:56.840167 17230 net.cpp:150] Setting up res_neg_mask1c_branch1
I0617 16:27:56.840186 17230 net.cpp:157] Top shape: 1 256 14 14 (50176)
I0617 16:27:56.840190 17230 net.cpp:165] Memory required for data: 301134540
I0617 16:27:56.840204 17230 layer_factory.hpp:77] Creating layer bn_neg_mask1c_branch1
I0617 16:27:56.840214 17230 net.cpp:100] Creating Layer bn_neg_mask1c_branch1
I0617 16:27:56.840220 17230 net.cpp:444] bn_neg_mask1c_branch1 <- res_neg_mask1c_branch1
I0617 16:27:56.840234 17230 net.cpp:405] bn_neg_mask1c_branch1 -> res_neg_mask1c_branch1 (in-place)
I0617 16:27:56.840411 17230 net.cpp:150] Setting up bn_neg_mask1c_branch1
I0617 16:27:56.840426 17230 net.cpp:157] Top shape: 1 256 14 14 (50176)
I0617 16:27:56.840430 17230 net.cpp:165] Memory required for data: 301335244
I0617 16:27:56.840445 17230 layer_factory.hpp:77] Creating layer scale_neg_mask1c_branch1
I0617 16:27:56.840456 17230 net.cpp:100] Creating Layer scale_neg_mask1c_branch1
I0617 16:27:56.840462 17230 net.cpp:444] scale_neg_mask1c_branch1 <- res_neg_mask1c_branch1
I0617 16:27:56.840467 17230 net.cpp:405] scale_neg_mask1c_branch1 -> res_neg_mask1c_branch1 (in-place)
I0617 16:27:56.840513 17230 layer_factory.hpp:77] Creating layer scale_neg_mask1c_branch1
I0617 16:27:56.840626 17230 net.cpp:150] Setting up scale_neg_mask1c_branch1
I0617 16:27:56.840641 17230 net.cpp:157] Top shape: 1 256 14 14 (50176)
I0617 16:27:56.840644 17230 net.cpp:165] Memory required for data: 301535948
I0617 16:27:56.840659 17230 layer_factory.hpp:77] Creating layer res_neg_mask1c_branch2a
I0617 16:27:56.840678 17230 net.cpp:100] Creating Layer res_neg_mask1c_branch2a
I0617 16:27:56.840685 17230 net.cpp:444] res_neg_mask1c_branch2a <- neg_mask_deconv_1_neg_mask_deconv_1_relu_0_split_1
I0617 16:27:56.840700 17230 net.cpp:418] res_neg_mask1c_branch2a -> res_neg_mask1c_branch2a
I0617 16:27:56.843875 17230 net.cpp:150] Setting up res_neg_mask1c_branch2a
I0617 16:27:56.843894 17230 net.cpp:157] Top shape: 1 512 14 14 (100352)
I0617 16:27:56.843899 17230 net.cpp:165] Memory required for data: 301937356
I0617 16:27:56.843912 17230 layer_factory.hpp:77] Creating layer bn_neg_mask1c_branch2a
I0617 16:27:56.843924 17230 net.cpp:100] Creating Layer bn_neg_mask1c_branch2a
I0617 16:27:56.843931 17230 net.cpp:444] bn_neg_mask1c_branch2a <- res_neg_mask1c_branch2a
I0617 16:27:56.843945 17230 net.cpp:405] bn_neg_mask1c_branch2a -> res_neg_mask1c_branch2a (in-place)
I0617 16:27:56.844136 17230 net.cpp:150] Setting up bn_neg_mask1c_branch2a
I0617 16:27:56.844151 17230 net.cpp:157] Top shape: 1 512 14 14 (100352)
I0617 16:27:56.844154 17230 net.cpp:165] Memory required for data: 302338764
I0617 16:27:56.844169 17230 layer_factory.hpp:77] Creating layer scale_neg_mask1c_branch2a
I0617 16:27:56.844179 17230 net.cpp:100] Creating Layer scale_neg_mask1c_branch2a
I0617 16:27:56.844185 17230 net.cpp:444] scale_neg_mask1c_branch2a <- res_neg_mask1c_branch2a
I0617 16:27:56.844190 17230 net.cpp:405] scale_neg_mask1c_branch2a -> res_neg_mask1c_branch2a (in-place)
I0617 16:27:56.844235 17230 layer_factory.hpp:77] Creating layer scale_neg_mask1c_branch2a
I0617 16:27:56.844348 17230 net.cpp:150] Setting up scale_neg_mask1c_branch2a
I0617 16:27:56.844364 17230 net.cpp:157] Top shape: 1 512 14 14 (100352)
I0617 16:27:56.844367 17230 net.cpp:165] Memory required for data: 302740172
I0617 16:27:56.844383 17230 layer_factory.hpp:77] Creating layer res_neg_mask1c_branch2a_relu
I0617 16:27:56.844390 17230 net.cpp:100] Creating Layer res_neg_mask1c_branch2a_relu
I0617 16:27:56.844396 17230 net.cpp:444] res_neg_mask1c_branch2a_relu <- res_neg_mask1c_branch2a
I0617 16:27:56.844411 17230 net.cpp:405] res_neg_mask1c_branch2a_relu -> res_neg_mask1c_branch2a (in-place)
I0617 16:27:56.844419 17230 net.cpp:150] Setting up res_neg_mask1c_branch2a_relu
I0617 16:27:56.844425 17230 net.cpp:157] Top shape: 1 512 14 14 (100352)
I0617 16:27:56.844429 17230 net.cpp:165] Memory required for data: 303141580
I0617 16:27:56.844432 17230 layer_factory.hpp:77] Creating layer res_neg_mask1c_branch2b
I0617 16:27:56.844441 17230 net.cpp:100] Creating Layer res_neg_mask1c_branch2b
I0617 16:27:56.844449 17230 net.cpp:444] res_neg_mask1c_branch2b <- res_neg_mask1c_branch2a
I0617 16:27:56.844461 17230 net.cpp:418] res_neg_mask1c_branch2b -> res_neg_mask1c_branch2b
I0617 16:27:56.868981 17230 net.cpp:150] Setting up res_neg_mask1c_branch2b
I0617 16:27:56.869015 17230 net.cpp:157] Top shape: 1 512 14 14 (100352)
I0617 16:27:56.869019 17230 net.cpp:165] Memory required for data: 303542988
I0617 16:27:56.869036 17230 layer_factory.hpp:77] Creating layer bn_neg_mask1c_branch2b
I0617 16:27:56.869057 17230 net.cpp:100] Creating Layer bn_neg_mask1c_branch2b
I0617 16:27:56.869067 17230 net.cpp:444] bn_neg_mask1c_branch2b <- res_neg_mask1c_branch2b
I0617 16:27:56.869076 17230 net.cpp:405] bn_neg_mask1c_branch2b -> res_neg_mask1c_branch2b (in-place)
I0617 16:27:56.869279 17230 net.cpp:150] Setting up bn_neg_mask1c_branch2b
I0617 16:27:56.869293 17230 net.cpp:157] Top shape: 1 512 14 14 (100352)
I0617 16:27:56.869297 17230 net.cpp:165] Memory required for data: 303944396
I0617 16:27:56.869312 17230 layer_factory.hpp:77] Creating layer scale_neg_mask1c_branch2b
I0617 16:27:56.869323 17230 net.cpp:100] Creating Layer scale_neg_mask1c_branch2b
I0617 16:27:56.869329 17230 net.cpp:444] scale_neg_mask1c_branch2b <- res_neg_mask1c_branch2b
I0617 16:27:56.869333 17230 net.cpp:405] scale_neg_mask1c_branch2b -> res_neg_mask1c_branch2b (in-place)
I0617 16:27:56.869379 17230 layer_factory.hpp:77] Creating layer scale_neg_mask1c_branch2b
I0617 16:27:56.869491 17230 net.cpp:150] Setting up scale_neg_mask1c_branch2b
I0617 16:27:56.869504 17230 net.cpp:157] Top shape: 1 512 14 14 (100352)
I0617 16:27:56.869511 17230 net.cpp:165] Memory required for data: 304345804
I0617 16:27:56.869520 17230 layer_factory.hpp:77] Creating layer res_neg_mask1c_branch2b_relu
I0617 16:27:56.869532 17230 net.cpp:100] Creating Layer res_neg_mask1c_branch2b_relu
I0617 16:27:56.869539 17230 net.cpp:444] res_neg_mask1c_branch2b_relu <- res_neg_mask1c_branch2b
I0617 16:27:56.869551 17230 net.cpp:405] res_neg_mask1c_branch2b_relu -> res_neg_mask1c_branch2b (in-place)
I0617 16:27:56.869560 17230 net.cpp:150] Setting up res_neg_mask1c_branch2b_relu
I0617 16:27:56.869566 17230 net.cpp:157] Top shape: 1 512 14 14 (100352)
I0617 16:27:56.869570 17230 net.cpp:165] Memory required for data: 304747212
I0617 16:27:56.869575 17230 layer_factory.hpp:77] Creating layer res_neg_mask1c_branch2c
I0617 16:27:56.869592 17230 net.cpp:100] Creating Layer res_neg_mask1c_branch2c
I0617 16:27:56.869598 17230 net.cpp:444] res_neg_mask1c_branch2c <- res_neg_mask1c_branch2b
I0617 16:27:56.869611 17230 net.cpp:418] res_neg_mask1c_branch2c -> res_neg_mask1c_branch2c
I0617 16:27:56.871039 17230 net.cpp:150] Setting up res_neg_mask1c_branch2c
I0617 16:27:56.871057 17230 net.cpp:157] Top shape: 1 256 14 14 (50176)
I0617 16:27:56.871060 17230 net.cpp:165] Memory required for data: 304947916
I0617 16:27:56.871065 17230 layer_factory.hpp:77] Creating layer bn_neg_mask1c_branch2c
I0617 16:27:56.871081 17230 net.cpp:100] Creating Layer bn_neg_mask1c_branch2c
I0617 16:27:56.871088 17230 net.cpp:444] bn_neg_mask1c_branch2c <- res_neg_mask1c_branch2c
I0617 16:27:56.871101 17230 net.cpp:405] bn_neg_mask1c_branch2c -> res_neg_mask1c_branch2c (in-place)
I0617 16:27:56.871273 17230 net.cpp:150] Setting up bn_neg_mask1c_branch2c
I0617 16:27:56.871287 17230 net.cpp:157] Top shape: 1 256 14 14 (50176)
I0617 16:27:56.871290 17230 net.cpp:165] Memory required for data: 305148620
I0617 16:27:56.871305 17230 layer_factory.hpp:77] Creating layer scale_neg_mask1c_branch2c
I0617 16:27:56.871315 17230 net.cpp:100] Creating Layer scale_neg_mask1c_branch2c
I0617 16:27:56.871320 17230 net.cpp:444] scale_neg_mask1c_branch2c <- res_neg_mask1c_branch2c
I0617 16:27:56.871325 17230 net.cpp:405] scale_neg_mask1c_branch2c -> res_neg_mask1c_branch2c (in-place)
I0617 16:27:56.871376 17230 layer_factory.hpp:77] Creating layer scale_neg_mask1c_branch2c
I0617 16:27:56.871476 17230 net.cpp:150] Setting up scale_neg_mask1c_branch2c
I0617 16:27:56.871490 17230 net.cpp:157] Top shape: 1 256 14 14 (50176)
I0617 16:27:56.871495 17230 net.cpp:165] Memory required for data: 305349324
I0617 16:27:56.871500 17230 layer_factory.hpp:77] Creating layer res_neg_mask1c
I0617 16:27:56.871507 17230 net.cpp:100] Creating Layer res_neg_mask1c
I0617 16:27:56.871511 17230 net.cpp:444] res_neg_mask1c <- res_neg_mask1c_branch1
I0617 16:27:56.871518 17230 net.cpp:444] res_neg_mask1c <- res_neg_mask1c_branch2c
I0617 16:27:56.871532 17230 net.cpp:418] res_neg_mask1c -> res_neg_mask1c
I0617 16:27:56.871556 17230 net.cpp:150] Setting up res_neg_mask1c
I0617 16:27:56.871570 17230 net.cpp:157] Top shape: 1 256 14 14 (50176)
I0617 16:27:56.871573 17230 net.cpp:165] Memory required for data: 305550028
I0617 16:27:56.871577 17230 layer_factory.hpp:77] Creating layer res_neg_mask1c_relu
I0617 16:27:56.871584 17230 net.cpp:100] Creating Layer res_neg_mask1c_relu
I0617 16:27:56.871590 17230 net.cpp:444] res_neg_mask1c_relu <- res_neg_mask1c
I0617 16:27:56.871594 17230 net.cpp:405] res_neg_mask1c_relu -> res_neg_mask1c (in-place)
I0617 16:27:56.871603 17230 net.cpp:150] Setting up res_neg_mask1c_relu
I0617 16:27:56.871608 17230 net.cpp:157] Top shape: 1 256 14 14 (50176)
I0617 16:27:56.871613 17230 net.cpp:165] Memory required for data: 305750732
I0617 16:27:56.871615 17230 layer_factory.hpp:77] Creating layer neg_mask_deconv_2
I0617 16:27:56.871624 17230 net.cpp:100] Creating Layer neg_mask_deconv_2
I0617 16:27:56.871630 17230 net.cpp:444] neg_mask_deconv_2 <- res_neg_mask1c
I0617 16:27:56.871647 17230 net.cpp:418] neg_mask_deconv_2 -> neg_mask_deconv_2
I0617 16:27:56.872419 17230 net.cpp:150] Setting up neg_mask_deconv_2
I0617 16:27:56.872436 17230 net.cpp:157] Top shape: 1 25 14 14 (4900)
I0617 16:27:56.872439 17230 net.cpp:165] Memory required for data: 305770332
I0617 16:27:56.872453 17230 layer_factory.hpp:77] Creating layer bn_neg_mask_deconv_2
I0617 16:27:56.872462 17230 net.cpp:100] Creating Layer bn_neg_mask_deconv_2
I0617 16:27:56.872468 17230 net.cpp:444] bn_neg_mask_deconv_2 <- neg_mask_deconv_2
I0617 16:27:56.872483 17230 net.cpp:405] bn_neg_mask_deconv_2 -> neg_mask_deconv_2 (in-place)
I0617 16:27:56.872653 17230 net.cpp:150] Setting up bn_neg_mask_deconv_2
I0617 16:27:56.872668 17230 net.cpp:157] Top shape: 1 25 14 14 (4900)
I0617 16:27:56.872671 17230 net.cpp:165] Memory required for data: 305789932
I0617 16:27:56.872678 17230 layer_factory.hpp:77] Creating layer scale_neg_mask_deconv_2
I0617 16:27:56.872686 17230 net.cpp:100] Creating Layer scale_neg_mask_deconv_2
I0617 16:27:56.872692 17230 net.cpp:444] scale_neg_mask_deconv_2 <- neg_mask_deconv_2
I0617 16:27:56.872706 17230 net.cpp:405] scale_neg_mask_deconv_2 -> neg_mask_deconv_2 (in-place)
I0617 16:27:56.872750 17230 layer_factory.hpp:77] Creating layer scale_neg_mask_deconv_2
I0617 16:27:56.872859 17230 net.cpp:150] Setting up scale_neg_mask_deconv_2
I0617 16:27:56.872872 17230 net.cpp:157] Top shape: 1 25 14 14 (4900)
I0617 16:27:56.872875 17230 net.cpp:165] Memory required for data: 305809532
I0617 16:27:56.872889 17230 layer_factory.hpp:77] Creating layer Sig_neg_mask
I0617 16:27:56.872897 17230 net.cpp:100] Creating Layer Sig_neg_mask
I0617 16:27:56.872903 17230 net.cpp:444] Sig_neg_mask <- neg_mask_deconv_2
I0617 16:27:56.872908 17230 net.cpp:418] Sig_neg_mask -> Sig_neg_mask
I0617 16:27:56.872941 17230 net.cpp:150] Setting up Sig_neg_mask
I0617 16:27:56.872953 17230 net.cpp:157] Top shape: 1 25 14 14 (4900)
I0617 16:27:56.872957 17230 net.cpp:165] Memory required for data: 305829132
I0617 16:27:56.872961 17230 layer_factory.hpp:77] Creating layer conv_new_1
I0617 16:27:56.872978 17230 net.cpp:100] Creating Layer conv_new_1
I0617 16:27:56.872987 17230 net.cpp:444] conv_new_1 <- res5c
I0617 16:27:56.873000 17230 net.cpp:418] conv_new_1 -> conv_new_1
I0617 16:27:56.893972 17230 net.cpp:150] Setting up conv_new_1
I0617 16:27:56.894003 17230 net.cpp:157] Top shape: 1 1024 14 14 (200704)
I0617 16:27:56.894008 17230 net.cpp:165] Memory required for data: 306631948
I0617 16:27:56.894026 17230 layer_factory.hpp:77] Creating layer conv_new_1_relu
I0617 16:27:56.894037 17230 net.cpp:100] Creating Layer conv_new_1_relu
I0617 16:27:56.894050 17230 net.cpp:444] conv_new_1_relu <- conv_new_1
I0617 16:27:56.894067 17230 net.cpp:405] conv_new_1_relu -> conv_new_1 (in-place)
I0617 16:27:56.894078 17230 net.cpp:150] Setting up conv_new_1_relu
I0617 16:27:56.894084 17230 net.cpp:157] Top shape: 1 1024 14 14 (200704)
I0617 16:27:56.894088 17230 net.cpp:165] Memory required for data: 307434764
I0617 16:27:56.894091 17230 layer_factory.hpp:77] Creating layer conv_new_1_conv_new_1_relu_0_split
I0617 16:27:56.894098 17230 net.cpp:100] Creating Layer conv_new_1_conv_new_1_relu_0_split
I0617 16:27:56.894104 17230 net.cpp:444] conv_new_1_conv_new_1_relu_0_split <- conv_new_1
I0617 16:27:56.894109 17230 net.cpp:418] conv_new_1_conv_new_1_relu_0_split -> conv_new_1_conv_new_1_relu_0_split_0
I0617 16:27:56.894119 17230 net.cpp:418] conv_new_1_conv_new_1_relu_0_split -> conv_new_1_conv_new_1_relu_0_split_1
I0617 16:27:56.894127 17230 net.cpp:418] conv_new_1_conv_new_1_relu_0_split -> conv_new_1_conv_new_1_relu_0_split_2
I0617 16:27:56.894134 17230 net.cpp:418] conv_new_1_conv_new_1_relu_0_split -> conv_new_1_conv_new_1_relu_0_split_3
I0617 16:27:56.894208 17230 net.cpp:150] Setting up conv_new_1_conv_new_1_relu_0_split
I0617 16:27:56.894223 17230 net.cpp:157] Top shape: 1 1024 14 14 (200704)
I0617 16:27:56.894227 17230 net.cpp:157] Top shape: 1 1024 14 14 (200704)
I0617 16:27:56.894233 17230 net.cpp:157] Top shape: 1 1024 14 14 (200704)
I0617 16:27:56.894237 17230 net.cpp:157] Top shape: 1 1024 14 14 (200704)
I0617 16:27:56.894243 17230 net.cpp:165] Memory required for data: 310646028
I0617 16:27:56.894245 17230 layer_factory.hpp:77] Creating layer rfcn_neg_cls_soft
I0617 16:27:56.894263 17230 net.cpp:100] Creating Layer rfcn_neg_cls_soft
I0617 16:27:56.894271 17230 net.cpp:444] rfcn_neg_cls_soft <- conv_new_1_conv_new_1_relu_0_split_0
I0617 16:27:56.894287 17230 net.cpp:418] rfcn_neg_cls_soft -> rfcn_neg_cls_soft
I0617 16:27:56.894750 17230 net.cpp:150] Setting up rfcn_neg_cls_soft
I0617 16:27:56.894767 17230 net.cpp:157] Top shape: 1 25 14 14 (4900)
I0617 16:27:56.894770 17230 net.cpp:165] Memory required for data: 310665628
I0617 16:27:56.894784 17230 layer_factory.hpp:77] Creating layer rfcn_pos_cls_soft
I0617 16:27:56.894795 17230 net.cpp:100] Creating Layer rfcn_pos_cls_soft
I0617 16:27:56.894803 17230 net.cpp:444] rfcn_pos_cls_soft <- conv_new_1_conv_new_1_relu_0_split_1
I0617 16:27:56.894809 17230 net.cpp:418] rfcn_pos_cls_soft -> rfcn_pos_cls_soft
I0617 16:27:56.900285 17230 net.cpp:150] Setting up rfcn_pos_cls_soft
I0617 16:27:56.900308 17230 net.cpp:157] Top shape: 1 500 14 14 (98000)
I0617 16:27:56.900311 17230 net.cpp:165] Memory required for data: 311057628
I0617 16:27:56.900326 17230 layer_factory.hpp:77] Creating layer rfcn_pos_bbox_soft
I0617 16:27:56.900343 17230 net.cpp:100] Creating Layer rfcn_pos_bbox_soft
I0617 16:27:56.900352 17230 net.cpp:444] rfcn_pos_bbox_soft <- conv_new_1_conv_new_1_relu_0_split_2
I0617 16:27:56.900367 17230 net.cpp:418] rfcn_pos_bbox_soft -> rfcn_pos_bbox_soft
I0617 16:27:56.901551 17230 net.cpp:150] Setting up rfcn_pos_bbox_soft
I0617 16:27:56.901571 17230 net.cpp:157] Top shape: 1 100 14 14 (19600)
I0617 16:27:56.901574 17230 net.cpp:165] Memory required for data: 311136028
I0617 16:27:56.901587 17230 layer_factory.hpp:77] Creating layer rfcn_neg_bbox_soft
I0617 16:27:56.901598 17230 net.cpp:100] Creating Layer rfcn_neg_bbox_soft
I0617 16:27:56.901604 17230 net.cpp:444] rfcn_neg_bbox_soft <- conv_new_1_conv_new_1_relu_0_split_3
I0617 16:27:56.901619 17230 net.cpp:418] rfcn_neg_bbox_soft -> rfcn_neg_bbox_soft
I0617 16:27:56.902796 17230 net.cpp:150] Setting up rfcn_neg_bbox_soft
I0617 16:27:56.902817 17230 net.cpp:157] Top shape: 1 100 14 14 (19600)
I0617 16:27:56.902819 17230 net.cpp:165] Memory required for data: 311214428
I0617 16:27:56.902833 17230 layer_factory.hpp:77] Creating layer roi_pool_neg_bbox
I0617 16:27:56.902844 17230 net.cpp:100] Creating Layer roi_pool_neg_bbox
I0617 16:27:56.902850 17230 net.cpp:444] roi_pool_neg_bbox <- rfcn_neg_bbox_soft
I0617 16:27:56.902854 17230 net.cpp:444] roi_pool_neg_bbox <- rois_input_1_split_0
I0617 16:27:56.902863 17230 net.cpp:418] roi_pool_neg_bbox -> roi_pool_neg_bbox
I0617 16:27:56.902873 17230 roi_pooling_layer.cpp:25] Spatial scale: 0.0625
I0617 16:27:56.902920 17230 net.cpp:150] Setting up roi_pool_neg_bbox
I0617 16:27:56.902935 17230 net.cpp:157] Top shape: 1 100 15 15 (22500)
I0617 16:27:56.902938 17230 net.cpp:165] Memory required for data: 311304428
I0617 16:27:56.902945 17230 layer_factory.hpp:77] Creating layer roi_pool_neg_bbox_roi_pool_neg_bbox_0_split
I0617 16:27:56.902959 17230 net.cpp:100] Creating Layer roi_pool_neg_bbox_roi_pool_neg_bbox_0_split
I0617 16:27:56.902964 17230 net.cpp:444] roi_pool_neg_bbox_roi_pool_neg_bbox_0_split <- roi_pool_neg_bbox
I0617 16:27:56.902969 17230 net.cpp:418] roi_pool_neg_bbox_roi_pool_neg_bbox_0_split -> roi_pool_neg_bbox_roi_pool_neg_bbox_0_split_0
I0617 16:27:56.902977 17230 net.cpp:418] roi_pool_neg_bbox_roi_pool_neg_bbox_0_split -> roi_pool_neg_bbox_roi_pool_neg_bbox_0_split_1
I0617 16:27:56.903012 17230 net.cpp:150] Setting up roi_pool_neg_bbox_roi_pool_neg_bbox_0_split
I0617 16:27:56.903020 17230 net.cpp:157] Top shape: 1 100 15 15 (22500)
I0617 16:27:56.903033 17230 net.cpp:157] Top shape: 1 100 15 15 (22500)
I0617 16:27:56.903035 17230 net.cpp:165] Memory required for data: 311484428
I0617 16:27:56.903038 17230 layer_factory.hpp:77] Creating layer roi_pool_pos_bbox
I0617 16:27:56.903043 17230 net.cpp:100] Creating Layer roi_pool_pos_bbox
I0617 16:27:56.903054 17230 net.cpp:444] roi_pool_pos_bbox <- rfcn_pos_bbox_soft
I0617 16:27:56.903059 17230 net.cpp:444] roi_pool_pos_bbox <- rois_input_1_split_1
I0617 16:27:56.903064 17230 net.cpp:418] roi_pool_pos_bbox -> roi_pool_pos_bbox
I0617 16:27:56.903072 17230 roi_pooling_layer.cpp:25] Spatial scale: 0.0625
I0617 16:27:56.903110 17230 net.cpp:150] Setting up roi_pool_pos_bbox
I0617 16:27:56.903125 17230 net.cpp:157] Top shape: 1 100 15 15 (22500)
I0617 16:27:56.903127 17230 net.cpp:165] Memory required for data: 311574428
I0617 16:27:56.903131 17230 layer_factory.hpp:77] Creating layer roi_pool_pos_bbox_roi_pool_pos_bbox_0_split
I0617 16:27:56.903139 17230 net.cpp:100] Creating Layer roi_pool_pos_bbox_roi_pool_pos_bbox_0_split
I0617 16:27:56.903146 17230 net.cpp:444] roi_pool_pos_bbox_roi_pool_pos_bbox_0_split <- roi_pool_pos_bbox
I0617 16:27:56.903151 17230 net.cpp:418] roi_pool_pos_bbox_roi_pool_pos_bbox_0_split -> roi_pool_pos_bbox_roi_pool_pos_bbox_0_split_0
I0617 16:27:56.903167 17230 net.cpp:418] roi_pool_pos_bbox_roi_pool_pos_bbox_0_split -> roi_pool_pos_bbox_roi_pool_pos_bbox_0_split_1
I0617 16:27:56.903198 17230 net.cpp:150] Setting up roi_pool_pos_bbox_roi_pool_pos_bbox_0_split
I0617 16:27:56.903211 17230 net.cpp:157] Top shape: 1 100 15 15 (22500)
I0617 16:27:56.903214 17230 net.cpp:157] Top shape: 1 100 15 15 (22500)
I0617 16:27:56.903218 17230 net.cpp:165] Memory required for data: 311754428
I0617 16:27:56.903221 17230 layer_factory.hpp:77] Creating layer roi_pool_pos_cls
I0617 16:27:56.903229 17230 net.cpp:100] Creating Layer roi_pool_pos_cls
I0617 16:27:56.903235 17230 net.cpp:444] roi_pool_pos_cls <- rfcn_pos_cls_soft
I0617 16:27:56.903239 17230 net.cpp:444] roi_pool_pos_cls <- rois_input_1_split_2
I0617 16:27:56.903245 17230 net.cpp:418] roi_pool_pos_cls -> roi_pool_pos_cls
I0617 16:27:56.903259 17230 roi_pooling_layer.cpp:25] Spatial scale: 0.0625
I0617 16:27:56.903298 17230 net.cpp:150] Setting up roi_pool_pos_cls
I0617 16:27:56.903312 17230 net.cpp:157] Top shape: 1 500 15 15 (112500)
I0617 16:27:56.903316 17230 net.cpp:165] Memory required for data: 312204428
I0617 16:27:56.903318 17230 layer_factory.hpp:77] Creating layer roi_pool_pos_cls_roi_pool_pos_cls_0_split
I0617 16:27:56.903326 17230 net.cpp:100] Creating Layer roi_pool_pos_cls_roi_pool_pos_cls_0_split
I0617 16:27:56.903329 17230 net.cpp:444] roi_pool_pos_cls_roi_pool_pos_cls_0_split <- roi_pool_pos_cls
I0617 16:27:56.903343 17230 net.cpp:418] roi_pool_pos_cls_roi_pool_pos_cls_0_split -> roi_pool_pos_cls_roi_pool_pos_cls_0_split_0
I0617 16:27:56.903352 17230 net.cpp:418] roi_pool_pos_cls_roi_pool_pos_cls_0_split -> roi_pool_pos_cls_roi_pool_pos_cls_0_split_1
I0617 16:27:56.903365 17230 net.cpp:418] roi_pool_pos_cls_roi_pool_pos_cls_0_split -> roi_pool_pos_cls_roi_pool_pos_cls_0_split_2
I0617 16:27:56.903424 17230 net.cpp:150] Setting up roi_pool_pos_cls_roi_pool_pos_cls_0_split
I0617 16:27:56.903432 17230 net.cpp:157] Top shape: 1 500 15 15 (112500)
I0617 16:27:56.903436 17230 net.cpp:157] Top shape: 1 500 15 15 (112500)
I0617 16:27:56.903440 17230 net.cpp:157] Top shape: 1 500 15 15 (112500)
I0617 16:27:56.903443 17230 net.cpp:165] Memory required for data: 313554428
I0617 16:27:56.903446 17230 layer_factory.hpp:77] Creating layer roi_pool_neg_cls
I0617 16:27:56.903460 17230 net.cpp:100] Creating Layer roi_pool_neg_cls
I0617 16:27:56.903465 17230 net.cpp:444] roi_pool_neg_cls <- rfcn_neg_cls_soft
I0617 16:27:56.903470 17230 net.cpp:444] roi_pool_neg_cls <- rois_input_1_split_3
I0617 16:27:56.903475 17230 net.cpp:418] roi_pool_neg_cls -> roi_pool_neg_cls
I0617 16:27:56.903481 17230 roi_pooling_layer.cpp:25] Spatial scale: 0.0625
I0617 16:27:56.903518 17230 net.cpp:150] Setting up roi_pool_neg_cls
I0617 16:27:56.903533 17230 net.cpp:157] Top shape: 1 25 15 15 (5625)
I0617 16:27:56.903537 17230 net.cpp:165] Memory required for data: 313576928
I0617 16:27:56.903540 17230 layer_factory.hpp:77] Creating layer roi_pool_neg_cls_roi_pool_neg_cls_0_split
I0617 16:27:56.903545 17230 net.cpp:100] Creating Layer roi_pool_neg_cls_roi_pool_neg_cls_0_split
I0617 16:27:56.903559 17230 net.cpp:444] roi_pool_neg_cls_roi_pool_neg_cls_0_split <- roi_pool_neg_cls
I0617 16:27:56.903564 17230 net.cpp:418] roi_pool_neg_cls_roi_pool_neg_cls_0_split -> roi_pool_neg_cls_roi_pool_neg_cls_0_split_0
I0617 16:27:56.903579 17230 net.cpp:418] roi_pool_neg_cls_roi_pool_neg_cls_0_split -> roi_pool_neg_cls_roi_pool_neg_cls_0_split_1
I0617 16:27:56.903586 17230 net.cpp:418] roi_pool_neg_cls_roi_pool_neg_cls_0_split -> roi_pool_neg_cls_roi_pool_neg_cls_0_split_2
I0617 16:27:56.903630 17230 net.cpp:150] Setting up roi_pool_neg_cls_roi_pool_neg_cls_0_split
I0617 16:27:56.903645 17230 net.cpp:157] Top shape: 1 25 15 15 (5625)
I0617 16:27:56.903650 17230 net.cpp:157] Top shape: 1 25 15 15 (5625)
I0617 16:27:56.903653 17230 net.cpp:157] Top shape: 1 25 15 15 (5625)
I0617 16:27:56.903656 17230 net.cpp:165] Memory required for data: 313644428
I0617 16:27:56.903659 17230 layer_factory.hpp:77] Creating layer roi_pool_pos_mask
I0617 16:27:56.903664 17230 net.cpp:100] Creating Layer roi_pool_pos_mask
I0617 16:27:56.903668 17230 net.cpp:444] roi_pool_pos_mask <- Sig_pos_mask
I0617 16:27:56.903672 17230 net.cpp:444] roi_pool_pos_mask <- rois_input_1_split_4
I0617 16:27:56.903687 17230 net.cpp:418] roi_pool_pos_mask -> roi_pool_pos_mask
I0617 16:27:56.903694 17230 roi_pooling_layer.cpp:25] Spatial scale: 0.0625
I0617 16:27:56.903729 17230 net.cpp:150] Setting up roi_pool_pos_mask
I0617 16:27:56.903743 17230 net.cpp:157] Top shape: 1 25 15 15 (5625)
I0617 16:27:56.903746 17230 net.cpp:165] Memory required for data: 313666928
I0617 16:27:56.903749 17230 layer_factory.hpp:77] Creating layer roi_pool_pos_mask_roi_pool_pos_mask_0_split
I0617 16:27:56.903764 17230 net.cpp:100] Creating Layer roi_pool_pos_mask_roi_pool_pos_mask_0_split
I0617 16:27:56.903769 17230 net.cpp:444] roi_pool_pos_mask_roi_pool_pos_mask_0_split <- roi_pool_pos_mask
I0617 16:27:56.903774 17230 net.cpp:418] roi_pool_pos_mask_roi_pool_pos_mask_0_split -> roi_pool_pos_mask_roi_pool_pos_mask_0_split_0
I0617 16:27:56.903789 17230 net.cpp:418] roi_pool_pos_mask_roi_pool_pos_mask_0_split -> roi_pool_pos_mask_roi_pool_pos_mask_0_split_1
I0617 16:27:56.903795 17230 net.cpp:418] roi_pool_pos_mask_roi_pool_pos_mask_0_split -> roi_pool_pos_mask_roi_pool_pos_mask_0_split_2
I0617 16:27:56.903841 17230 net.cpp:150] Setting up roi_pool_pos_mask_roi_pool_pos_mask_0_split
I0617 16:27:56.903854 17230 net.cpp:157] Top shape: 1 25 15 15 (5625)
I0617 16:27:56.903858 17230 net.cpp:157] Top shape: 1 25 15 15 (5625)
I0617 16:27:56.903862 17230 net.cpp:157] Top shape: 1 25 15 15 (5625)
I0617 16:27:56.903865 17230 net.cpp:165] Memory required for data: 313734428
I0617 16:27:56.903868 17230 layer_factory.hpp:77] Creating layer roi_pool_neg_mask
I0617 16:27:56.903873 17230 net.cpp:100] Creating Layer roi_pool_neg_mask
I0617 16:27:56.903887 17230 net.cpp:444] roi_pool_neg_mask <- Sig_neg_mask
I0617 16:27:56.903890 17230 net.cpp:444] roi_pool_neg_mask <- rois_input_1_split_5
I0617 16:27:56.903904 17230 net.cpp:418] roi_pool_neg_mask -> roi_pool_neg_mask
I0617 16:27:56.903913 17230 roi_pooling_layer.cpp:25] Spatial scale: 0.0625
I0617 16:27:56.903939 17230 net.cpp:150] Setting up roi_pool_neg_mask
I0617 16:27:56.903954 17230 net.cpp:157] Top shape: 1 25 15 15 (5625)
I0617 16:27:56.903957 17230 net.cpp:165] Memory required for data: 313756928
I0617 16:27:56.903960 17230 layer_factory.hpp:77] Creating layer roi_pool_neg_mask_roi_pool_neg_mask_0_split
I0617 16:27:56.903976 17230 net.cpp:100] Creating Layer roi_pool_neg_mask_roi_pool_neg_mask_0_split
I0617 16:27:56.903982 17230 net.cpp:444] roi_pool_neg_mask_roi_pool_neg_mask_0_split <- roi_pool_neg_mask
I0617 16:27:56.903986 17230 net.cpp:418] roi_pool_neg_mask_roi_pool_neg_mask_0_split -> roi_pool_neg_mask_roi_pool_neg_mask_0_split_0
I0617 16:27:56.904000 17230 net.cpp:418] roi_pool_neg_mask_roi_pool_neg_mask_0_split -> roi_pool_neg_mask_roi_pool_neg_mask_0_split_1
I0617 16:27:56.904007 17230 net.cpp:418] roi_pool_neg_mask_roi_pool_neg_mask_0_split -> roi_pool_neg_mask_roi_pool_neg_mask_0_split_2
I0617 16:27:56.904052 17230 net.cpp:150] Setting up roi_pool_neg_mask_roi_pool_neg_mask_0_split
I0617 16:27:56.904065 17230 net.cpp:157] Top shape: 1 25 15 15 (5625)
I0617 16:27:56.904069 17230 net.cpp:157] Top shape: 1 25 15 15 (5625)
I0617 16:27:56.904072 17230 net.cpp:157] Top shape: 1 25 15 15 (5625)
I0617 16:27:56.904075 17230 net.cpp:165] Memory required for data: 313824428
I0617 16:27:56.904079 17230 layer_factory.hpp:77] Creating layer determinstic_concat
I0617 16:27:56.904085 17230 net.cpp:100] Creating Layer determinstic_concat
I0617 16:27:56.904089 17230 net.cpp:444] determinstic_concat <- roi_pool_pos_cls_roi_pool_pos_cls_0_split_0
I0617 16:27:56.904094 17230 net.cpp:444] determinstic_concat <- roi_pool_neg_cls_roi_pool_neg_cls_0_split_0
I0617 16:27:56.904098 17230 net.cpp:444] determinstic_concat <- roi_pool_pos_mask_roi_pool_pos_mask_0_split_0
I0617 16:27:56.904103 17230 net.cpp:444] determinstic_concat <- roi_pool_neg_mask_roi_pool_neg_mask_0_split_0
I0617 16:27:56.904108 17230 net.cpp:418] determinstic_concat -> determinstic_concat
I0617 16:27:56.904129 17230 net.cpp:150] Setting up determinstic_concat
I0617 16:27:56.904137 17230 net.cpp:157] Top shape: 1 575 15 15 (129375)
I0617 16:27:56.904140 17230 net.cpp:165] Memory required for data: 314341928
I0617 16:27:56.904144 17230 layer_factory.hpp:77] Creating layer determinstic_relu
I0617 16:27:56.904150 17230 net.cpp:100] Creating Layer determinstic_relu
I0617 16:27:56.904152 17230 net.cpp:444] determinstic_relu <- determinstic_concat
I0617 16:27:56.904167 17230 net.cpp:405] determinstic_relu -> determinstic_concat (in-place)
I0617 16:27:56.904175 17230 net.cpp:150] Setting up determinstic_relu
I0617 16:27:56.904180 17230 net.cpp:157] Top shape: 1 575 15 15 (129375)
I0617 16:27:56.904182 17230 net.cpp:165] Memory required for data: 314859428
I0617 16:27:56.904186 17230 layer_factory.hpp:77] Creating layer determinstic_conv1
I0617 16:27:56.904201 17230 net.cpp:100] Creating Layer determinstic_conv1
I0617 16:27:56.904207 17230 net.cpp:444] determinstic_conv1 <- determinstic_concat
I0617 16:27:56.904213 17230 net.cpp:418] determinstic_conv1 -> determinstic_conv1
I0617 16:27:56.930567 17230 net.cpp:150] Setting up determinstic_conv1
I0617 16:27:56.930599 17230 net.cpp:157] Top shape: 1 512 15 15 (115200)
I0617 16:27:56.930603 17230 net.cpp:165] Memory required for data: 315320228
I0617 16:27:56.930622 17230 layer_factory.hpp:77] Creating layer determinstic_conv1_relu
I0617 16:27:56.930631 17230 net.cpp:100] Creating Layer determinstic_conv1_relu
I0617 16:27:56.930637 17230 net.cpp:444] determinstic_conv1_relu <- determinstic_conv1
I0617 16:27:56.930645 17230 net.cpp:405] determinstic_conv1_relu -> determinstic_conv1 (in-place)
I0617 16:27:56.930660 17230 net.cpp:150] Setting up determinstic_conv1_relu
I0617 16:27:56.930665 17230 net.cpp:157] Top shape: 1 512 15 15 (115200)
I0617 16:27:56.930667 17230 net.cpp:165] Memory required for data: 315781028
I0617 16:27:56.930670 17230 layer_factory.hpp:77] Creating layer determinstic_conv2
I0617 16:27:56.930688 17230 net.cpp:100] Creating Layer determinstic_conv2
I0617 16:27:56.930696 17230 net.cpp:444] determinstic_conv2 <- determinstic_conv1
I0617 16:27:56.930701 17230 net.cpp:418] determinstic_conv2 -> determinstic_conv2
I0617 16:27:56.942692 17230 net.cpp:150] Setting up determinstic_conv2
I0617 16:27:56.942729 17230 net.cpp:157] Top shape: 1 256 15 15 (57600)
I0617 16:27:56.942734 17230 net.cpp:165] Memory required for data: 316011428
I0617 16:27:56.942750 17230 layer_factory.hpp:77] Creating layer determinstic_conv2_relu
I0617 16:27:56.942767 17230 net.cpp:100] Creating Layer determinstic_conv2_relu
I0617 16:27:56.942775 17230 net.cpp:444] determinstic_conv2_relu <- determinstic_conv2
I0617 16:27:56.942790 17230 net.cpp:405] determinstic_conv2_relu -> determinstic_conv2 (in-place)
I0617 16:27:56.942800 17230 net.cpp:150] Setting up determinstic_conv2_relu
I0617 16:27:56.942807 17230 net.cpp:157] Top shape: 1 256 15 15 (57600)
I0617 16:27:56.942811 17230 net.cpp:165] Memory required for data: 316241828
I0617 16:27:56.942814 17230 layer_factory.hpp:77] Creating layer determinstic_conv3
I0617 16:27:56.942832 17230 net.cpp:100] Creating Layer determinstic_conv3
I0617 16:27:56.942839 17230 net.cpp:444] determinstic_conv3 <- determinstic_conv2
I0617 16:27:56.942844 17230 net.cpp:418] determinstic_conv3 -> determinstic_conv3
I0617 16:27:56.943138 17230 net.cpp:150] Setting up determinstic_conv3
I0617 16:27:56.943155 17230 net.cpp:157] Top shape: 1 2 15 15 (450)
I0617 16:27:56.943158 17230 net.cpp:165] Memory required for data: 316243628
I0617 16:27:56.943171 17230 layer_factory.hpp:77] Creating layer deterministic
I0617 16:27:56.943182 17230 net.cpp:100] Creating Layer deterministic
I0617 16:27:56.943187 17230 net.cpp:444] deterministic <- determinstic_conv3
I0617 16:27:56.943192 17230 net.cpp:418] deterministic -> deterministic
I0617 16:27:56.943217 17230 net.cpp:150] Setting up deterministic
I0617 16:27:56.943231 17230 net.cpp:157] Top shape: 1 2 1 1 (2)
I0617 16:27:56.943235 17230 net.cpp:165] Memory required for data: 316243636
I0617 16:27:56.943238 17230 layer_factory.hpp:77] Creating layer deterministic_prob
I0617 16:27:56.943253 17230 net.cpp:100] Creating Layer deterministic_prob
I0617 16:27:56.943256 17230 net.cpp:444] deterministic_prob <- deterministic
I0617 16:27:56.943270 17230 net.cpp:418] deterministic_prob -> deterministic_prob
I0617 16:27:56.943333 17230 net.cpp:150] Setting up deterministic_prob
I0617 16:27:56.943342 17230 net.cpp:157] Top shape: 1 2 1 1 (2)
I0617 16:27:56.943346 17230 net.cpp:165] Memory required for data: 316243644
I0617 16:27:56.943349 17230 layer_factory.hpp:77] Creating layer deterministic_prob_slice
I0617 16:27:56.943364 17230 net.cpp:100] Creating Layer deterministic_prob_slice
I0617 16:27:56.943370 17230 net.cpp:444] deterministic_prob_slice <- deterministic_prob
I0617 16:27:56.943377 17230 net.cpp:418] deterministic_prob_slice -> neg_prob
I0617 16:27:56.943392 17230 net.cpp:418] deterministic_prob_slice -> pos_prob
I0617 16:27:56.943434 17230 net.cpp:150] Setting up deterministic_prob_slice
I0617 16:27:56.943449 17230 net.cpp:157] Top shape: 1 1 1 1 (1)
I0617 16:27:56.943452 17230 net.cpp:157] Top shape: 1 1 1 1 (1)
I0617 16:27:56.943455 17230 net.cpp:165] Memory required for data: 316243652
I0617 16:27:56.943459 17230 layer_factory.hpp:77] Creating layer roi_pool_pos_mask_tile
I0617 16:27:56.943473 17230 net.cpp:100] Creating Layer roi_pool_pos_mask_tile
I0617 16:27:56.943480 17230 net.cpp:444] roi_pool_pos_mask_tile <- roi_pool_pos_mask_roi_pool_pos_mask_0_split_1
I0617 16:27:56.943495 17230 net.cpp:418] roi_pool_pos_mask_tile -> roi_pool_pos_mask_tile
I0617 16:27:56.943517 17230 net.cpp:150] Setting up roi_pool_pos_mask_tile
I0617 16:27:56.943526 17230 net.cpp:157] Top shape: 1 500 15 15 (112500)
I0617 16:27:56.943528 17230 net.cpp:165] Memory required for data: 316693652
I0617 16:27:56.943532 17230 layer_factory.hpp:77] Creating layer pos_cls_assemble_1
I0617 16:27:56.943547 17230 net.cpp:100] Creating Layer pos_cls_assemble_1
I0617 16:27:56.943552 17230 net.cpp:444] pos_cls_assemble_1 <- roi_pool_pos_mask_tile
I0617 16:27:56.943557 17230 net.cpp:444] pos_cls_assemble_1 <- roi_pool_pos_cls_roi_pool_pos_cls_0_split_1
I0617 16:27:56.943572 17230 net.cpp:418] pos_cls_assemble_1 -> pos_cls_assemble_1
I0617 16:27:56.943596 17230 net.cpp:150] Setting up pos_cls_assemble_1
I0617 16:27:56.943604 17230 net.cpp:157] Top shape: 1 500 15 15 (112500)
I0617 16:27:56.943608 17230 net.cpp:165] Memory required for data: 317143652
I0617 16:27:56.943611 17230 layer_factory.hpp:77] Creating layer pos_cls_assemble
I0617 16:27:56.943619 17230 net.cpp:100] Creating Layer pos_cls_assemble
I0617 16:27:56.943622 17230 net.cpp:444] pos_cls_assemble <- pos_cls_assemble_1
I0617 16:27:56.943626 17230 net.cpp:444] pos_cls_assemble <- roi_pool_pos_cls_roi_pool_pos_cls_0_split_2
I0617 16:27:56.943631 17230 net.cpp:418] pos_cls_assemble -> pos_cls_assemble
I0617 16:27:56.943666 17230 net.cpp:150] Setting up pos_cls_assemble
I0617 16:27:56.943675 17230 net.cpp:157] Top shape: 1 500 15 15 (112500)
I0617 16:27:56.943678 17230 net.cpp:165] Memory required for data: 317593652
I0617 16:27:56.943681 17230 layer_factory.hpp:77] Creating layer pos_cls_reshape
I0617 16:27:56.943696 17230 net.cpp:100] Creating Layer pos_cls_reshape
I0617 16:27:56.943702 17230 net.cpp:444] pos_cls_reshape <- pos_cls_assemble
I0617 16:27:56.943707 17230 net.cpp:418] pos_cls_reshape -> pos_cls_reshape
I0617 16:27:56.943730 17230 net.cpp:150] Setting up pos_cls_reshape
I0617 16:27:56.943745 17230 net.cpp:157] Top shape: 1 20 25 225 (112500)
I0617 16:27:56.943748 17230 net.cpp:165] Memory required for data: 318043652
I0617 16:27:56.943752 17230 layer_factory.hpp:77] Creating layer pos_cls_pool
I0617 16:27:56.943765 17230 net.cpp:100] Creating Layer pos_cls_pool
I0617 16:27:56.943773 17230 net.cpp:444] pos_cls_pool <- pos_cls_reshape
I0617 16:27:56.943778 17230 net.cpp:418] pos_cls_pool -> pos_cls_score
I0617 16:27:56.943797 17230 net.cpp:150] Setting up pos_cls_pool
I0617 16:27:56.943812 17230 net.cpp:157] Top shape: 1 20 1 1 (20)
I0617 16:27:56.943815 17230 net.cpp:165] Memory required for data: 318043732
I0617 16:27:56.943819 17230 layer_factory.hpp:77] Creating layer roi_pool_pos_mask_tile_bbox
I0617 16:27:56.943832 17230 net.cpp:100] Creating Layer roi_pool_pos_mask_tile_bbox
I0617 16:27:56.943840 17230 net.cpp:444] roi_pool_pos_mask_tile_bbox <- roi_pool_pos_mask_roi_pool_pos_mask_0_split_2
I0617 16:27:56.943852 17230 net.cpp:418] roi_pool_pos_mask_tile_bbox -> roi_pool_pos_mask_tile_bbox
I0617 16:27:56.943877 17230 net.cpp:150] Setting up roi_pool_pos_mask_tile_bbox
I0617 16:27:56.943886 17230 net.cpp:157] Top shape: 1 100 15 15 (22500)
I0617 16:27:56.943888 17230 net.cpp:165] Memory required for data: 318133732
I0617 16:27:56.943892 17230 layer_factory.hpp:77] Creating layer pos_bbox_assemble_1
I0617 16:27:56.943907 17230 net.cpp:100] Creating Layer pos_bbox_assemble_1
I0617 16:27:56.943914 17230 net.cpp:444] pos_bbox_assemble_1 <- roi_pool_pos_mask_tile_bbox
I0617 16:27:56.943918 17230 net.cpp:444] pos_bbox_assemble_1 <- roi_pool_pos_bbox_roi_pool_pos_bbox_0_split_0
I0617 16:27:56.943923 17230 net.cpp:418] pos_bbox_assemble_1 -> pos_bbox_assemble_1
I0617 16:27:56.943955 17230 net.cpp:150] Setting up pos_bbox_assemble_1
I0617 16:27:56.943964 17230 net.cpp:157] Top shape: 1 100 15 15 (22500)
I0617 16:27:56.943966 17230 net.cpp:165] Memory required for data: 318223732
I0617 16:27:56.943969 17230 layer_factory.hpp:77] Creating layer pos_bbox_assemble
I0617 16:27:56.943974 17230 net.cpp:100] Creating Layer pos_bbox_assemble
I0617 16:27:56.943985 17230 net.cpp:444] pos_bbox_assemble <- pos_bbox_assemble_1
I0617 16:27:56.943990 17230 net.cpp:444] pos_bbox_assemble <- roi_pool_pos_bbox_roi_pool_pos_bbox_0_split_1
I0617 16:27:56.944005 17230 net.cpp:418] pos_bbox_assemble -> pos_bbox_assemble
I0617 16:27:56.944030 17230 net.cpp:150] Setting up pos_bbox_assemble
I0617 16:27:56.944037 17230 net.cpp:157] Top shape: 1 100 15 15 (22500)
I0617 16:27:56.944041 17230 net.cpp:165] Memory required for data: 318313732
I0617 16:27:56.944043 17230 layer_factory.hpp:77] Creating layer pos_bbox_reshape
I0617 16:27:56.944057 17230 net.cpp:100] Creating Layer pos_bbox_reshape
I0617 16:27:56.944063 17230 net.cpp:444] pos_bbox_reshape <- pos_bbox_assemble
I0617 16:27:56.944069 17230 net.cpp:418] pos_bbox_reshape -> pos_bbox_reshape
I0617 16:27:56.944089 17230 net.cpp:150] Setting up pos_bbox_reshape
I0617 16:27:56.944104 17230 net.cpp:157] Top shape: 1 4 25 225 (22500)
I0617 16:27:56.944108 17230 net.cpp:165] Memory required for data: 318403732
I0617 16:27:56.944110 17230 layer_factory.hpp:77] Creating layer pos_bbox_pool
I0617 16:27:56.944123 17230 net.cpp:100] Creating Layer pos_bbox_pool
I0617 16:27:56.944129 17230 net.cpp:444] pos_bbox_pool <- pos_bbox_reshape
I0617 16:27:56.944133 17230 net.cpp:418] pos_bbox_pool -> pos_bbox_pred
I0617 16:27:56.944154 17230 net.cpp:150] Setting up pos_bbox_pool
I0617 16:27:56.944167 17230 net.cpp:157] Top shape: 1 4 1 1 (4)
I0617 16:27:56.944170 17230 net.cpp:165] Memory required for data: 318403748
I0617 16:27:56.944175 17230 layer_factory.hpp:77] Creating layer roi_pool_neg_mask_tile
I0617 16:27:56.944180 17230 net.cpp:100] Creating Layer roi_pool_neg_mask_tile
I0617 16:27:56.944193 17230 net.cpp:444] roi_pool_neg_mask_tile <- roi_pool_neg_mask_roi_pool_neg_mask_0_split_1
I0617 16:27:56.944198 17230 net.cpp:418] roi_pool_neg_mask_tile -> roi_pool_neg_mask_tile
I0617 16:27:56.944219 17230 net.cpp:150] Setting up roi_pool_neg_mask_tile
I0617 16:27:56.944234 17230 net.cpp:157] Top shape: 1 25 15 15 (5625)
I0617 16:27:56.944237 17230 net.cpp:165] Memory required for data: 318426248
I0617 16:27:56.944241 17230 layer_factory.hpp:77] Creating layer neg_cls_assemble_1
I0617 16:27:56.944245 17230 net.cpp:100] Creating Layer neg_cls_assemble_1
I0617 16:27:56.944259 17230 net.cpp:444] neg_cls_assemble_1 <- roi_pool_neg_mask_tile
I0617 16:27:56.944264 17230 net.cpp:444] neg_cls_assemble_1 <- roi_pool_neg_cls_roi_pool_neg_cls_0_split_1
I0617 16:27:56.944269 17230 net.cpp:418] neg_cls_assemble_1 -> neg_cls_assemble_1
I0617 16:27:56.944296 17230 net.cpp:150] Setting up neg_cls_assemble_1
I0617 16:27:56.944311 17230 net.cpp:157] Top shape: 1 25 15 15 (5625)
I0617 16:27:56.944315 17230 net.cpp:165] Memory required for data: 318448748
I0617 16:27:56.944319 17230 layer_factory.hpp:77] Creating layer neg_cls_assemble
I0617 16:27:56.944325 17230 net.cpp:100] Creating Layer neg_cls_assemble
I0617 16:27:56.944329 17230 net.cpp:444] neg_cls_assemble <- neg_cls_assemble_1
I0617 16:27:56.944334 17230 net.cpp:444] neg_cls_assemble <- roi_pool_neg_cls_roi_pool_neg_cls_0_split_2
I0617 16:27:56.944339 17230 net.cpp:418] neg_cls_assemble -> neg_cls_assemble
I0617 16:27:56.944358 17230 net.cpp:150] Setting up neg_cls_assemble
I0617 16:27:56.944366 17230 net.cpp:157] Top shape: 1 25 15 15 (5625)
I0617 16:27:56.944370 17230 net.cpp:165] Memory required for data: 318471248
I0617 16:27:56.944372 17230 layer_factory.hpp:77] Creating layer neg_cls_reshape
I0617 16:27:56.944380 17230 net.cpp:100] Creating Layer neg_cls_reshape
I0617 16:27:56.944383 17230 net.cpp:444] neg_cls_reshape <- neg_cls_assemble
I0617 16:27:56.944388 17230 net.cpp:418] neg_cls_reshape -> neg_cls_reshape
I0617 16:27:56.944408 17230 net.cpp:150] Setting up neg_cls_reshape
I0617 16:27:56.944416 17230 net.cpp:157] Top shape: 1 1 25 225 (5625)
I0617 16:27:56.944419 17230 net.cpp:165] Memory required for data: 318493748
I0617 16:27:56.944422 17230 layer_factory.hpp:77] Creating layer neg_cls_pool
I0617 16:27:56.944427 17230 net.cpp:100] Creating Layer neg_cls_pool
I0617 16:27:56.944447 17230 net.cpp:444] neg_cls_pool <- neg_cls_reshape
I0617 16:27:56.944453 17230 net.cpp:418] neg_cls_pool -> neg_cls_score
I0617 16:27:56.944485 17230 net.cpp:150] Setting up neg_cls_pool
I0617 16:27:56.944494 17230 net.cpp:157] Top shape: 1 1 1 1 (1)
I0617 16:27:56.944496 17230 net.cpp:165] Memory required for data: 318493752
I0617 16:27:56.944499 17230 layer_factory.hpp:77] Creating layer roi_pool_neg_bbox_tile
I0617 16:27:56.944504 17230 net.cpp:100] Creating Layer roi_pool_neg_bbox_tile
I0617 16:27:56.944509 17230 net.cpp:444] roi_pool_neg_bbox_tile <- roi_pool_neg_mask_roi_pool_neg_mask_0_split_2
I0617 16:27:56.944522 17230 net.cpp:418] roi_pool_neg_bbox_tile -> roi_pool_neg_bbox_tile
I0617 16:27:56.944546 17230 net.cpp:150] Setting up roi_pool_neg_bbox_tile
I0617 16:27:56.944555 17230 net.cpp:157] Top shape: 1 100 15 15 (22500)
I0617 16:27:56.944557 17230 net.cpp:165] Memory required for data: 318583752
I0617 16:27:56.944561 17230 layer_factory.hpp:77] Creating layer neg_bbox_assemble_1
I0617 16:27:56.944574 17230 net.cpp:100] Creating Layer neg_bbox_assemble_1
I0617 16:27:56.944581 17230 net.cpp:444] neg_bbox_assemble_1 <- roi_pool_neg_bbox_tile
I0617 16:27:56.944584 17230 net.cpp:444] neg_bbox_assemble_1 <- roi_pool_neg_bbox_roi_pool_neg_bbox_0_split_0
I0617 16:27:56.944589 17230 net.cpp:418] neg_bbox_assemble_1 -> neg_bbox_assemble_1
I0617 16:27:56.944609 17230 net.cpp:150] Setting up neg_bbox_assemble_1
I0617 16:27:56.944617 17230 net.cpp:157] Top shape: 1 100 15 15 (22500)
I0617 16:27:56.944620 17230 net.cpp:165] Memory required for data: 318673752
I0617 16:27:56.944623 17230 layer_factory.hpp:77] Creating layer neg_bbox_assemble
I0617 16:27:56.944628 17230 net.cpp:100] Creating Layer neg_bbox_assemble
I0617 16:27:56.944633 17230 net.cpp:444] neg_bbox_assemble <- neg_bbox_assemble_1
I0617 16:27:56.944638 17230 net.cpp:444] neg_bbox_assemble <- roi_pool_neg_bbox_roi_pool_neg_bbox_0_split_1
I0617 16:27:56.944651 17230 net.cpp:418] neg_bbox_assemble -> neg_bbox_assemble
I0617 16:27:56.944672 17230 net.cpp:150] Setting up neg_bbox_assemble
I0617 16:27:56.944680 17230 net.cpp:157] Top shape: 1 100 15 15 (22500)
I0617 16:27:56.944684 17230 net.cpp:165] Memory required for data: 318763752
I0617 16:27:56.944686 17230 layer_factory.hpp:77] Creating layer neg_bbox_reshape
I0617 16:27:56.944700 17230 net.cpp:100] Creating Layer neg_bbox_reshape
I0617 16:27:56.944705 17230 net.cpp:444] neg_bbox_reshape <- neg_bbox_assemble
I0617 16:27:56.944710 17230 net.cpp:418] neg_bbox_reshape -> neg_bbox_reshape
I0617 16:27:56.944728 17230 net.cpp:150] Setting up neg_bbox_reshape
I0617 16:27:56.944736 17230 net.cpp:157] Top shape: 1 4 25 225 (22500)
I0617 16:27:56.944739 17230 net.cpp:165] Memory required for data: 318853752
I0617 16:27:56.944743 17230 layer_factory.hpp:77] Creating layer neg_bbox_pool
I0617 16:27:56.944751 17230 net.cpp:100] Creating Layer neg_bbox_pool
I0617 16:27:56.944754 17230 net.cpp:444] neg_bbox_pool <- neg_bbox_reshape
I0617 16:27:56.944758 17230 net.cpp:418] neg_bbox_pool -> neg_bbox_pred
I0617 16:27:56.944778 17230 net.cpp:150] Setting up neg_bbox_pool
I0617 16:27:56.944787 17230 net.cpp:157] Top shape: 1 4 1 1 (4)
I0617 16:27:56.944789 17230 net.cpp:165] Memory required for data: 318853768
I0617 16:27:56.944793 17230 layer_factory.hpp:77] Creating layer neg_prob_tile
I0617 16:27:56.944808 17230 net.cpp:100] Creating Layer neg_prob_tile
I0617 16:27:56.944813 17230 net.cpp:444] neg_prob_tile <- neg_prob
I0617 16:27:56.944818 17230 net.cpp:418] neg_prob_tile -> neg_prob_tile
I0617 16:27:56.944836 17230 net.cpp:150] Setting up neg_prob_tile
I0617 16:27:56.944844 17230 net.cpp:157] Top shape: 1 1 1 1 (1)
I0617 16:27:56.944847 17230 net.cpp:165] Memory required for data: 318853772
I0617 16:27:56.944850 17230 layer_factory.hpp:77] Creating layer pos_prob_tile
I0617 16:27:56.944855 17230 net.cpp:100] Creating Layer pos_prob_tile
I0617 16:27:56.944859 17230 net.cpp:444] pos_prob_tile <- pos_prob
I0617 16:27:56.944871 17230 net.cpp:418] pos_prob_tile -> pos_prob_tile
I0617 16:27:56.944895 17230 net.cpp:150] Setting up pos_prob_tile
I0617 16:27:56.944903 17230 net.cpp:157] Top shape: 1 20 1 1 (20)
I0617 16:27:56.944906 17230 net.cpp:165] Memory required for data: 318853852
I0617 16:27:56.944910 17230 layer_factory.hpp:77] Creating layer pos_cls_prob_apply
I0617 16:27:56.944923 17230 net.cpp:100] Creating Layer pos_cls_prob_apply
I0617 16:27:56.944929 17230 net.cpp:444] pos_cls_prob_apply <- pos_cls_score
I0617 16:27:56.944933 17230 net.cpp:444] pos_cls_prob_apply <- pos_prob_tile
I0617 16:27:56.944939 17230 net.cpp:418] pos_cls_prob_apply -> pos_cls_score_apply
I0617 16:27:56.944958 17230 net.cpp:150] Setting up pos_cls_prob_apply
I0617 16:27:56.944967 17230 net.cpp:157] Top shape: 1 20 1 1 (20)
I0617 16:27:56.944969 17230 net.cpp:165] Memory required for data: 318853932
I0617 16:27:56.944972 17230 layer_factory.hpp:77] Creating layer neg_cls_prob_apply
I0617 16:27:56.944977 17230 net.cpp:100] Creating Layer neg_cls_prob_apply
I0617 16:27:56.944981 17230 net.cpp:444] neg_cls_prob_apply <- neg_cls_score
I0617 16:27:56.944986 17230 net.cpp:444] neg_cls_prob_apply <- neg_prob_tile
I0617 16:27:56.944990 17230 net.cpp:418] neg_cls_prob_apply -> neg_cls_score_apply
I0617 16:27:56.945009 17230 net.cpp:150] Setting up neg_cls_prob_apply
I0617 16:27:56.945017 17230 net.cpp:157] Top shape: 1 1 1 1 (1)
I0617 16:27:56.945020 17230 net.cpp:165] Memory required for data: 318853936
I0617 16:27:56.945024 17230 layer_factory.hpp:77] Creating layer cls_score_concat
I0617 16:27:56.945036 17230 net.cpp:100] Creating Layer cls_score_concat
I0617 16:27:56.945042 17230 net.cpp:444] cls_score_concat <- neg_cls_score_apply
I0617 16:27:56.945046 17230 net.cpp:444] cls_score_concat <- pos_cls_score_apply
I0617 16:27:56.945050 17230 net.cpp:418] cls_score_concat -> cls_score
I0617 16:27:56.945072 17230 net.cpp:150] Setting up cls_score_concat
I0617 16:27:56.945080 17230 net.cpp:157] Top shape: 1 21 1 1 (21)
I0617 16:27:56.945082 17230 net.cpp:165] Memory required for data: 318854020
I0617 16:27:56.945086 17230 layer_factory.hpp:77] Creating layer bbox_pred_concat
I0617 16:27:56.945091 17230 net.cpp:100] Creating Layer bbox_pred_concat
I0617 16:27:56.945093 17230 net.cpp:444] bbox_pred_concat <- neg_bbox_pred
I0617 16:27:56.945097 17230 net.cpp:444] bbox_pred_concat <- pos_bbox_pred
I0617 16:27:56.945102 17230 net.cpp:418] bbox_pred_concat -> bbox_pred_pre
I0617 16:27:56.945122 17230 net.cpp:150] Setting up bbox_pred_concat
I0617 16:27:56.945129 17230 net.cpp:157] Top shape: 1 8 1 1 (8)
I0617 16:27:56.945132 17230 net.cpp:165] Memory required for data: 318854052
I0617 16:27:56.945135 17230 layer_factory.hpp:77] Creating layer cls_prob
I0617 16:27:56.945152 17230 net.cpp:100] Creating Layer cls_prob
I0617 16:27:56.945158 17230 net.cpp:444] cls_prob <- cls_score
I0617 16:27:56.945161 17230 net.cpp:418] cls_prob -> cls_prob_pre
I0617 16:27:56.945225 17230 net.cpp:150] Setting up cls_prob
I0617 16:27:56.945240 17230 net.cpp:157] Top shape: 1 21 1 1 (21)
I0617 16:27:56.945245 17230 net.cpp:165] Memory required for data: 318854136
I0617 16:27:56.945247 17230 layer_factory.hpp:77] Creating layer cls_prob_reshape
I0617 16:27:56.945261 17230 net.cpp:100] Creating Layer cls_prob_reshape
I0617 16:27:56.945266 17230 net.cpp:444] cls_prob_reshape <- cls_prob_pre
I0617 16:27:56.945271 17230 net.cpp:418] cls_prob_reshape -> cls_prob
I0617 16:27:56.945298 17230 net.cpp:150] Setting up cls_prob_reshape
I0617 16:27:56.945307 17230 net.cpp:157] Top shape: 1 21 (21)
I0617 16:27:56.945309 17230 net.cpp:165] Memory required for data: 318854220
I0617 16:27:56.945312 17230 layer_factory.hpp:77] Creating layer bbox_pred_reshape
I0617 16:27:56.945328 17230 net.cpp:100] Creating Layer bbox_pred_reshape
I0617 16:27:56.945334 17230 net.cpp:444] bbox_pred_reshape <- bbox_pred_pre
I0617 16:27:56.945338 17230 net.cpp:418] bbox_pred_reshape -> bbox_pred
I0617 16:27:56.945358 17230 net.cpp:150] Setting up bbox_pred_reshape
I0617 16:27:56.945374 17230 net.cpp:157] Top shape: 1 8 (8)
I0617 16:27:56.945376 17230 net.cpp:165] Memory required for data: 318854252
I0617 16:27:56.945380 17230 net.cpp:228] bbox_pred_reshape does not need backward computation.
I0617 16:27:56.945384 17230 net.cpp:228] cls_prob_reshape does not need backward computation.
I0617 16:27:56.945386 17230 net.cpp:228] cls_prob does not need backward computation.
I0617 16:27:56.945389 17230 net.cpp:228] bbox_pred_concat does not need backward computation.
…
